KI_Shit/mnist_model.pth (torch, 445878 bytes, 14 tensors)

fc1.weight f4 [128, 784]
-0.009238607 0.005949813 -0.018225553 -0.021099003 0.017336285 -0.0234307 -0.017967025 0.0016689986
-0.01311778 0.010956367 0.0066186413 -0.029876579 0.020654215 -0.019102942 -0.032739706 -0.051017646
-0.030750474 0.017099233 -0.016382894 0.025811518 0.027539914 -0.00853812 -0.016042614 -0.02580232
0.027876867 -0.022127548 -0.015146209 0.0026352417 0.014300893 0.009293027 0.0039520846 0.035521153
-0.077262215 -0.026592432 0.03878781 0.035485636 0.036603987 0.014319957 0.017489968 -0.020014986
0.0022467282 -0.0007546968 -0.050703015 0.0050226855 -0.0013086791 -0.0115608405 0.047125526 0.041760784
0.052750748 0.060712792 0.072001755 0.053069938 0.006414393 -0.0066314708 0.019646743 0.009575945
-0.018755013 -0.01098252 0.005287387 -0.006911659 -1.8473609e-05 -0.012392618 0.0020573733 0.051994044
0.019063761 -0.0054820105 0.066849805 0.01615412 -0.0042259865 0.09801711 0.045159973 0.034069307
0.0038164244 0.022898583 -0.017267311 -0.013519796 -0.034957055 0.048679296 0.016551426 0.037735783
-0.019785572 0.021030234 0.024211423 -0.025093352 -0.028701639 -0.011385734 0.09430816 -0.061264638
-0.037530262 -0.043410446 0.044055294 0.033134483 0.03957341 0.077363506 0.0074952757 -0.039123785
-0.08315759 0.0053043 0.026366683 -0.014009223 0.02468993 -0.016942132 -0.01829703 -0.007275752
-0.060998138 0.02271171 -0.015555045 0.09222967 0.00583527 -0.04286425 -0.02928905 0.0032745812
0.027926931 0.0015568524 0.01037255 -0.0163443 -0.061109923 -0.0018560608 -0.014066184 -0.012723081
0.009934299 0.0036564418 -0.016449207 -0.09102051 -0.007456945 -0.017870754 -0.002229376 -0.035116088
0.010253379 0.05751115 0.049134485 0.06304018 0.025215995 -0.009530808 -0.04004529 0.019913765
-0.073838905 -0.09016088 -0.03555043 0.027080128 0.017034462 0.036440007 0.024680851 -0.030813152
-0.12399242 -0.087101646 -0.023768067 -0.047519907 -0.049555387 -0.07200976 -0.06466071 -0.08825258
-0.049321033 -0.0043537337 0.07947994 0.032888994 0.021319896 0.014267466 -0.009767467 0.010377087
0.023961319 0.042285707 -0.01648362 0.02737019 -0.027924033 -0.09864723 0.012094498 0.005364498
-0.0016377729 0.01058852 -0.07551255 -0.05527236 -0.13000253 -0.089880146 -0.010228958 -0.01800514
-0.06677999 -0.1297152 -0.059320066 -0.0426313 -0.030642638 -0.032193985 -0.06553505 0.027771419
-0.031545084 -0.013717255 -0.045349523 -0.05794693 -0.07782179 -0.04732785 -0.026854642 -0.059911486
0.016855396 -0.013096365 -0.047578618 -0.015434021 -0.014771031 0.016555393 -0.023105824 -0.07959385
-0.096528105 -0.07528179 -0.033679854 0.043375388 -0.021787088 -0.08821533 -0.01673474 0.029883163
0.015703574 0.03545508 0.044506636 0.032531768 -0.004279732 -0.011104837 0.004304998 -0.08226646
-0.04805449 -0.11552074 -0.08553347 -0.04370439 0.06997196 0.038067285 -0.023035584 -0.04580292
0.043386977 0.04575604 0.004587377 -0.018714843 -0.082308196 -0.07676375 -0.0798527 -0.006809828
-0.08219748 -0.031364113 -0.035088584 -0.01967221 0.025171725 0.079626165 0.02318231 -0.019771446
-0.03611194 -0.042357925 -0.047388576 -0.04559537 -0.078018285 -0.084234826 -0.07964995 -0.018712029
-0.017722782 0.013612544 -0.0554006 -0.014397209 0.07794326 0.0053263186 0.014340309 -0.0665263
00000000: 875d 17bc a6f6 c23b c14d 95bc d1d7 acbc
00000010: d304 8e3c bdf1 bfbc 952f 93bc 4dc2 da3a
00000020: f5eb 56bc 5582 333c 30e1 d83b babf f4bc
00000030: 0733 a93c c67d 9cbc 121a 06bd e1f7 50bd
00000040: 6be8 fbbc b113 8c3c 6b35 86bc ad72 d33c
00000050: 639b e13c 79e3 0bbc cd6b 83bc 635f d3bc
00000060: 075e e43c d544 b5bc ce27 78bc 05b4 2c3b
00000070: 4b4e 6a3c c841 183c 7d80 813b a17e 113d
00000080: a73b 9ebd 5fd8 d9bc f7df 1e3d 6359 113d
00000090: 10ee 153d 419e 6a3c 1f47 8f3c 78f6 a3bc
000000a0: d83d 133b d8d6 45ba f7ad 4fbd 5795 a43b
000000b0: fc87 abba ae69 3dbc b206 413d 5b0d 2b3d
000000c0: 2b11 583d faad 783d a875 933d dd5f 593d
000000d0: d42f d23b cf4c d9bb 35f2 a03c 6de4 1c3c
000000e0: 1da4 99bc 07f0 33bc d141 ad3b 337b e2bb
000000f0: c6f7 9ab7 680a 4bbc ffd4 063b b5f7 543d
00000100: 9b2b 9c3c 70a2 b3bb 8de8 883d a555 843c
00000110: 257a 8abb 32bd c83d aaf9 383d 428c 0b3d
00000120: fa1c 7a3b cf95 bb3c 2d74 8dbc 2282 5dbc
00000130: 212f 0fbd f163 473d db96 873c d690 1a3d
00000140: 5a15 a2bc 9947 ac3c 0957 c63c 9390 cdbc
00000150: b31f ebbc 3b8b 3abc a324 c13d a1f0 7abd
00000160: 55b9 19bd 27cf 31bd 5373 343d 06b8 073d
00000170: ba17 223d c270 9e3d ee9a f53b 4340 20bd
00000180: 874e aabd b2cf ad3b f1fe d73c f186 65bc
00000190: 8942 ca3c 3aca 8abc a7e3 95bc 6e69 eebb
000001a0: 2fd9 79bd e80d ba3c 96da 7ebc e9e2 bc3d
000001b0: cb35 bf3b 6c92 2fbd 97ef efbc 5b9a 563b
000001c0: 05c7 e43c 4c0f cc3a a1f1 293c 7be4 85bc
000001d0: 664e 7abd 1147 f3ba da75 66bc 7874 50bc
000001e0: 78c3 223c eaa0 6f3b 7dc0 86bc f668 babd
000001f0: 6359 f4bb b065 92bc b91a 12bb e3d5 0fbd
00000200: cafd 273c d090 6b3d 3e41 493d 361b 813d
00000210: c691 ce3c 1b27 1cbc 8806 24bd 3122 a33c
00000220: da38 97bd 44a6 b8bd 549d 11bd 25d7 dd3c
00000230: db8b 8b3c 1e42 153d 7f2f ca3c dd6b fcbc
00000240: bdef fdbd 5962 b2bd 40b5 c2bc 3ca4 42bd
00000250: 97fa 4abd da79 93bd d66c 84bd c5bd b4bd
00000260: da04 4abd c4a9 8ebb 61c6 a23d 9cb6 063d
00000270: 10a7 ae3c 17c2 693c ba07 20bc a804 2a3c
00000280: 874a c43c c733 2d3d a808 87bc 7337 e03c
00000290: f1c0 e4bc 8f07 cabd 0028 463c acc8 af3b
000002a0: 8aaa d6ba 797b 2d3c 53a6 9abd 4565 62bd
000002b0: 621f 05be 1513 b8bd 5c97 27bc 847f 93bc
000002c0: f3c3 88bd 10d4 04be 99f9 72bd 289e 2ebd
000002d0: 4506 fbbc d7dd 03bd 3e37 86bd e380 e33c
000002e0: 6b35 01bd 56be 60bc 6cc0 39bd c359 6dbd
000002f0: 0861 9fbd d9da 41bd 44fe dbbc bf65 75bd
00000300: 5414 8a3c 2392 56bc cce1 42bd fade 7cbc
00000310: 3202 72bc 2d9f 873c 6d48 bdbc 1a02 a3bd
00000320: 87b0 c5bd 572d 9abd e3f3 09bd 64aa 313d
00000330: d67a b2bc 3daa b4bd 4b17 89bc 89cd f43c
00000340: c8a4 803c 5939 113d 974c 363d 0840 053d
00000350: fe3c 8cbb 10f1 35bc f110 8d3b 517b a8bd
00000360: c9d4 44bd 2396 ecbd 2c2c afbd 6003 33bd
00000370: 754d 8f3d 71ec 1b3d 1fb5 bcbc d89b 3bbd
00000380: 8bb6 313d af6a 3b3d b551 963b df4f 99bc
00000390: 3391 a8bd 5036 9dbd d089 a3bd fa24 dfbb
000003a0: 2757 a8bd a877 00bd 0cb9 0fbd 9d27 a1bc
000003b0: ef34 ce3c 0b13 a33d d4e8 bd3c baf7 a1bc
000003c0: 1dea 13bd 817f 2dbd 861a 42bd 36c2 3abd
000003d0: 0dc8 9fbd 4f83 acbd 831f a3bd f849 99bc
000003e0: 5e2f 91bc 2607 5f3c bdeb 62bd 45e2 6bbc
000003f0: b7a0 9f3d 6688 ae3b 9ef3 6a3c f13e 88bd

fc1.bias f4 [128]
0.0065806913 0.00020751142 -0.019217953 0.024851775 -0.014955876 -0.006846319 -0.00988601 0.01823627
-0.015407707 0.0001406376 -0.0054076687 0.030555593 0.02721729 0.010715367 0.030909188 -0.0121685155
-0.023738991 0.021231586 -0.008217398 0.012048969 -0.034640975 -0.0066999835 -0.025165543 0.021097504
-0.01939283 0.022163961 -0.0036262076 -0.022420393 -0.011531231 -0.025636245 0.018807616 -0.005808428
0.014634942 -0.00905027 0.028941339 0.0038951696 0.030171564 -0.019598838 -0.02194689 -0.03625231
-0.033362396 -0.029210126 -0.008265453 0.008385301 -0.031254914 0.023915883 -0.028615132 -0.015643617
-0.014922281 -0.023390546 0.02545863 0.008907676 -0.011606694 0.031109845 0.035278898 0.018541418
-0.018780505 -0.016893974 -0.026295232 0.012370297 0.021232175 0.0037416755 0.025606351 -0.027679587
0.005831777 -0.0314028 0.00089869945 -0.036852684 -0.0014267013 0.016953696 0.02665933 -0.0072628185
0.029961577 -0.009728089 -0.020945285 -0.0338956 -0.01067855 -0.033698738 -0.02880811 -0.0079063075
0.035098046 -0.013502379 0.015720803 0.002469591 0.011168919 0.013251918 0.028529368 0.0008026384
0.014192903 0.0026394024 0.0038780167 -0.0002563498 -0.03149486 -0.023481295 0.032267004 0.0028904942
0.004037511 -0.015447501 -0.010268023 -0.028487278 -0.020385833 -0.023757156 0.0009152155 -0.032520637
-0.019761847 0.024653668 0.030306976 0.0308122 0.0006873005 0.03566336 0.0007385898 -0.0013609488
0.023643227 0.023613011 0.028681241 0.015950795 0.019280512 0.0088314945 -0.025992101 0.00042823266
-0.0012668751 0.0184078 -0.01536857 0.03772533 0.01431809 -0.005742154 0.011930275 -0.006388911
00000000: d7a2 d73b 6c97 5939 f86e 9dbc f395 cb3c
00000010: 7e09 75bc 1657 e0bb eef8 21bc 3b64 953c
00000020: 9b70 7cbc 1e78 1339 d032 b1bb b94f fa3c
00000030: cbf6 de3c 828f 2f3c 4435 fd3c 745e 47bc
00000040: 4678 c2bc dded ad3c 44a2 06bc 0a69 453c
00000050: b2e3 0dbd 898b dbbb f827 cebc acd4 ac3c
00000060: b6dd 9ebc 3291 b53c aba5 6dbb f9aa b7bc
00000070: 7ded 3cbc 1a03 d2bc 6e12 9a3c a054 bebb
00000080: 65c7 6f3c 9547 14bc 6316 ed3c 1a46 7f3b
00000090: 5b2a f73c be8d a0bc f7c9 b3bc 4d7d 14bd
000000a0: 02a7 08bd 134a efbc d36b 07bc 8062 093c
000000b0: 2705 00bd 3eeb c33c 486a eabc 0b27 80bc
000000c0: 957c 74bc 889d bfbc 9e8e d03c 80f1 113c
000000d0: 012a 3ebc 13da fe3c 9b80 103d 2ce4 973c
000000e0: 93d9 99bc 3b65 8abc 1969 d7bc c9ac 4a3c
000000f0: 19ef ad3c e636 753b 69c4 d13c 4dc0 e2bc
00000100: 7e18 bf3b 39a0 00bd b396 6b3a d7f2 16bd
00000110: 2700 bbba 7ae2 8a3c ab64 da3c f0fc edbb
00000120: fb71 f53c 9062 1fbc 7295 abbc 1dd6 0abd
00000130: 16f5 2ebc b007 0abd fcfe ebbc 7589 01bc
00000140: f8c2 0f3d 1539 5dbc eac8 803c ddd8 213b
00000150: d7fd 363c 931e 593c 6cb6 e93c 2768 523a
00000160: 5a89 683c d3f9 2c3b 5326 7e3b b066 86b9
00000170: c100 01bd d85b c0bc 682a 043d 726e 3d3b
00000180: 194d 843b 8417 7dbc 363b 28bc 275e e9bc
00000190: 3100 a7bc 5e9e c2bc 13eb 6f3a 5c34 05bd
000001a0: 99e3 a1bc 7df6 c93c 5646 f83c de69 fc3c
000001b0: f52b 343a be13 123d ec9d 413a dd61 b2ba
000001c0: 71af c13c 1370 c13c ecf4 ea3c 3eab 823c
000001d0: 2af2 9d3c f9b1 103c 63ed d4bc 6a84 e039
000001e0: 460d a6ba f4cb 963c 74cc 7bbc e085 1a3d
000001f0: 6c96 6a3c ae28 bcbb 3377 433c 125a d1bb

bn1.weight f4 [128]
0.93503916 0.9329511 0.99452317 0.9770165 0.9769188 0.95918757 0.92652965 0.8646277
0.99624735 0.88986087 1.0134991 0.86888 0.8755896 0.90055966 0.96636194 0.970523
0.9142937 0.8700052 0.9243576 0.93302715 0.8689755 0.92449695 0.92258227 0.9530078
1.0177374 0.9472883 0.93103516 0.95238924 0.9499337 0.9614343 0.8999265 0.98461586
0.97060597 0.9874483 0.95685035 0.96580577 0.94313234 0.91728544 0.9594863 0.93695045
0.9248345 0.9520756 0.92102957 0.8904726 0.88400257 0.95526475 0.96135587 0.95672435
0.9071961 0.9151194 1.0255349 0.9080198 0.928249 0.86509925 0.87216836 0.9090108
0.9036608 0.8741781 0.93125826 0.90386343 0.948585 0.954412 0.89959574 0.97973686
0.91203314 0.9526561 0.9605511 0.91236424 0.9135531 0.96635115 0.9143797 0.9345256
0.93306386 0.93309724 0.94651985 0.97175765 0.927155 0.9241479 0.89776665 0.8815525
0.9275341 0.94156545 0.9513548 0.9467339 0.8622988 0.9217593 0.9230582 0.96135855
0.944023 0.94386667 0.9406121 0.96159816 0.9850284 0.9305323 0.9425843 0.959159
0.8869575 0.8946095 0.94627917 0.9443719 1.0013071 0.9654133 0.87771374 0.9011966
0.96101904 0.93630725 0.9241848 0.9482132 0.8992029 0.90186584 0.9341005 0.94317985
0.82056725 0.86821264 0.9425759 0.9703385 0.9558031 0.9023222 0.9274801 0.91474545
0.94491017 0.9315661 0.94673026 0.9755192 0.9853415 0.94602597 0.9388489 0.88338137
00000000: ba5e 6f3f e2d5 6e3f 1299 7e3f c11d 7a3f
00000010: 5a17 7a3f 518d 753f 0c31 6d3f 3e58 5d3f
00000020: 110a 7f3f eccd 633f 57ba 813f eb6e 5e3f
00000030: a426 603f 148b 663f 7f63 773f 3274 783f
00000040: 270f 6a3f a9b8 5e3f b3a2 6c3f deda 6e3f
00000050: 2e75 5e3f d5ab 6c3f 5a2e 6c3f 52f8 733f
00000060: 3845 823f 7c81 723f 5258 6e3f c8cf 733f
00000070: db2e 733f 8f20 763f 9561 663f c90f 7c3f
00000080: a279 783f 69c9 7c3f 25f4 743f 0c3f 773f
00000090: 1f71 713f 38d3 6a3f e5a0 753f fcdb 6f3f
000000a0: f4c1 6c3f 3abb 733f 98c8 6b3f 03f6 633f
000000b0: fe4d 623f 3b8c 743f 6b1b 763f e3eb 743f
000000c0: 013e 683f 4445 6a3f ba44 833f fc73 683f
000000d0: baa1 6d3f 2577 5d3f 6d46 5f3f efb4 683f
000000e0: 5056 673f 23ca 5f3f f166 6e3f 9863 673f
000000f0: 77d6 723f 5854 743f e84b 663f 09d0 7a3f
00000100: 017b 693f 45e1 733f ade6 753f b490 693f
00000110: 9ede 693f ca62 773f ca14 6a3f 123d 6f3f
00000120: 46dd 6e3f 76df 6e3f 204f 723f 1cc5 783f
00000130: 085a 6d3f f594 6c3f 09d4 653f 6dad 613f
00000140: e072 6d3f 6f0a 713f fd8b 733f 275d 723f
00000150: 9dbf 5c3f 6bf8 6b3f 8b4d 6c3f 981b 763f
00000160: 7eab 713f 3fa1 713f f4cb 703f 4c2b 763f
00000170: d22a 7c3f 5d37 6e3f 344d 713f 728b 753f
00000180: a60f 633f 2105 653f 5a3f 723f 5bc2 713f
00000190: d52a 803f 5325 773f d9b1 603f d2b4 663f
000001a0: 5805 763f d5b1 6f3f 6097 6c3f 1abe 723f
000001b0: 2932 663f aee0 663f 3621 6f3f 3c74 713f
000001c0: b210 523f 2f43 5e3f a74c 713f 1b68 783f
000001d0: 83af 743f 96fe 663f 566f 6d3f c22c 6a3f
000001e0: a2e5 713f 1e7b 6e3f ea5c 723f a0bb 793f
000001f0: 573f 7c3f c22e 723f 6758 703f 4825 623f

bn1.bias f4 [128]
-0.3660073 -0.23006988 -0.3483635 -0.40337217 -0.5024266 -0.42930517 -0.30360433 -0.43804377
-0.39162204 -0.3736627 -0.20483422 -0.28471363 -0.37811428 -0.4085128 -0.33969805 -0.33836305
-0.42423582 -0.34146443 -0.2678437 -0.29191208 -0.287624 -0.2841181 -0.29276958 -0.22723065
-0.2640252 -0.36196554 -0.20107523 -0.378166 -0.3584943 -0.24853654 -0.40593952 -0.48972315
-0.2367407 -0.35201526 -0.38764203 -0.36352974 -0.40355554 -0.39333007 -0.27626595 -0.42229113
-0.35169038 -0.25470254 -0.34119233 -0.26737133 -0.25364718 -0.16922446 -0.30045366 -0.36576948
-0.2827283 -0.19738312 -0.4431053 -0.29711628 -0.27629292 -0.41027412 -0.22152805 -0.41185662
-0.3363994 -0.27315024 -0.2927532 -0.27289668 -0.36093247 -0.36607152 -0.38295 -0.33707485
-0.3704854 -0.29225722 -0.35338756 -0.41065884 -0.4496571 -0.26245436 -0.3089624 -0.32889146
-0.33796996 -0.3900438 -0.31039754 -0.4520365 -0.38867366 -0.37733418 -0.410012 -0.38904288
-0.30152088 -0.3196165 -0.396693 -0.38600922 -0.43801048 -0.38865054 -0.43444788 -0.3698399
-0.31217027 -0.42237812 -0.30441567 -0.39524642 -0.44982705 -0.28916872 -0.29108334 -0.2761354
-0.45949468 -0.34097242 -0.38737142 -0.26092777 -0.37491894 -0.4107607 -0.3573313 -0.29288375
-0.26363707 -0.4194726 -0.39217892 -0.25567067 -0.4354032 -0.3539179 -0.42598113 -0.29030582
-0.3827875 -0.38896814 -0.37333527 -0.46023405 -0.29858083 -0.31696078 -0.3926532 -0.3450659
-0.34623396 -0.5583766 -0.2526741 -0.256452 -0.35775635 -0.18028252 -0.27850994 -0.2829112
00000000: 4f65 bbbe 7097 6bbe b35c b2be cc86 cebe
00000010: 089f 00bf e3cd dbbe 0772 9bbe 4647 e0be
00000020: af82 c8be b850 bfbe 10c0 51be fcc5 91be
00000030: 3298 c1be 9728 d1be e7ec adbe ec3d adbe
00000040: 7035 d9be 6dd4 aebe cf22 89be 8075 95be
00000050: 7443 93be ed77 91be e5e5 95be 27af 68be
00000060: 502e 87be 8c53 b9be aae6 4dbe f99e c1be
00000070: 918c b7be 5d80 7ebe 4ed7 cfbe febc fabe
00000080: 276c 72be 583b b4be 0479 c6be 9220 babe
00000090: d59e cebe 8f62 c9be bb72 8dbe 8b36 d8be
000000a0: c310 b4be 5f68 82be c3b0 aebe e5e4 88be
000000b0: 0bde 81be 2d49 2dbe 10d5 99be 2346 bbbe
000000c0: c4c1 90be cd1e 4abe b3de e2be a01f 98be
000000d0: 4476 8dbe 730f d2be 40d8 62be dfde d2be
000000e0: 8b3c acbe 59da 8bbe bfe3 95be 1db9 8bbe
000000f0: 24cc b8be ba6d bbbe 0612 c4be 1395 acbe
00000100: 43b0 bdbe bda2 95be 37ef b4be e041 d2be
00000110: 7539 e6be 6b60 86be 5230 9ebe 7664 a8be
00000120: 660a adbe d2b3 c7be 6dec 9ebe 5471 e7be
00000130: 3c00 c7be f231 c1be 18ed d1be a130 c7be
00000140: f260 9abe c6a4 a3be 581b cbbe 00a3 c5be
00000150: e942 e0be 34fd c6be f46f debe a85b bdbe
00000160: c8d4 9fbe f241 d8be 5fdc 9bbe bd5d cabe
00000170: bb4f e6be ec0d 94be e008 95be 9f61 8dbe
00000180: e342 ebbe f093 aebe 8c55 c6be 5398 85be
00000190: 60f5 bfbe 3a4f d2be 21f4 b6be dcf4 95be
000001a0: 70fb 86be 1dc5 d6be adcb c8be 44e7 82be
000001b0: 2bed debe ba34 b5be 331a dabe f7a2 94be
000001c0: b9fc c3be d526 c7be cd25 bfbe cca3 ebbe
000001d0: 96df 98be af48 a2be d709 c9be 7aac b0be
000001e0: 9445 b1be c5f1 0ebf 805e 81be ad4d 83be
000001f0: d72b b7be fb9b 38be db98 8ebe bdd9 90be

bn1.running_mean f4 [128]
3.8543987 4.9310255 -0.25205332 1.9068825 -9.513023 3.830413 -1.3632879 2.589487
-4.6002293 2.552654 5.3312387 -1.3740847 -0.5147119 0.5940835 6.020649 -2.4228873
-0.07540469 2.2570965 0.36552086 2.1768436 2.0869682 1.7024583 2.1015058 1.7342211
-3.0156987 -1.4250752 8.915748 5.9202337 8.988112 -2.590056 5.7362285 -6.6755514
0.37093422 0.74249333 3.9859045 -0.7209367 3.0889487 -1.7845467 1.492448 -1.9141467
2.8488817 8.282107 2.1386003 0.55586094 3.7641652 -3.4688725 0.56971335 1.4565654
-5.887066 6.986513 0.37572312 -3.134375 -0.10419527 -0.7701971 -1.5771426 -1.2453533
3.2939007 1.7076203 -1.9464186 6.435255 2.9015434 -1.0450655 -3.216388 3.6575713
0.6968998 0.18924892 0.8397962 -4.5408974 8.420886 8.299715 5.986339 2.1388853
-0.60564196 1.558842 2.853558 0.40459803 -1.5981181 1.2866997 4.125153 -1.9460137
-2.9325266 2.788062 -2.836109 1.9135033 4.9772964 -4.635502 5.3358064 6.188515
7.5690393 -0.87632537 3.5812478 -3.9159822 -3.5041018 3.5219257 4.201174 2.5427516
4.6031713 2.3900962 -0.37906244 4.152313 0.6367822 -0.059433226 7.3160067 1.8285425
-1.4381119 -2.6716652 0.47290084 2.0251007 7.0974245 -1.4529872 5.664522 -6.917005
0.009624759 2.1613305 -2.1573997 -0.47760847 3.5677354 -1.5125291 -5.525039 1.7768209
1.2838961 2.819158 5.240989 -1.3388115 -0.7307909 5.096551 4.653041 2.2667892
00000000: 78ae 7640 f6ca 9d40 220d 81be ba14 f43f
00000010: 5835 18c1 7d25 7540 3880 aebf 28ba 2540
00000020: 1435 93c0 af5e 2340 8299 aa40 02e2 afbf
00000030: 29c4 03bf db15 183f 28a9 c040 9610 1bc0
00000040: c66d 9abd 4574 1040 8d25 bb3e 6851 0b40
00000050: e390 0540 27ea d93f 127f 0640 f5fa dd3f
00000060: 3501 41c0 dd68 b6bf e7a6 0e41 8e72 bd40
00000070: 4fcf 0f41 7ac3 25c0 2f8f b740 1e9e d5c0
00000080: 17eb bd3e 0b14 3e3f 0f19 7f40 4f8f 38bf
00000090: 56b1 4540 076c e4bf 8908 bf3f c202 f5bf
000000a0: 1454 3640 8383 0441 d4de 0840 e74c 0e3f
000000b0: 15e8 7040 0202 5ec0 bcd8 113f bc70 ba3f
000000c0: d862 bcc0 8491 df40 c85e c03e 9a99 48c0
000000d0: 5464 d5bd a32b 45bf cfdf c9bf bd67 9fbf
000000e0: 45cf 5240 4d93 da3f 3f24 f9bf 9ced cd40
000000f0: e3b2 3940 b5c4 85bf 4dd9 4dc0 a615 6a40
00000100: 0668 323f 78ca 413e e2fc 563f 084f 91c0
00000110: f3bb 0641 a2cb 0441 1790 bf40 7fe3 0840
00000120: 5a0b 1bbf 2288 c73f b2a0 3640 7927 cf3e
00000130: 228f ccbf 93b2 a43f 4101 8440 fa16 f9bf
00000140: 84ae 3bc0 9c6f 3240 cf82 35c0 aded f43f
00000150: 0346 9f40 0856 94c0 edbe aa40 5108 c640
00000160: 9235 f240 dc56 60bf 2a33 6540 749f 7ac0
00000170: 3443 60c0 3b67 6140 0470 8640 71bc 2240
00000180: 2e4d 9340 56f7 1840 7914 c2be c0df 8440
00000190: 2904 233f 4170 73bd ba1c ea40 ae0d ea3f
000001a0: 0d14 b8bf 90fc 2ac0 0f20 f23e 409b 0140
000001b0: 1a1e e340 7cfb b9bf c443 b540 1b58 ddc0
000001c0: 2ab1 1d3c 3d53 0a40 d612 0ac0 1989 f4be
000001d0: c755 6440 8e9a c1bf 1fcd b0c0 de6e e33f
000001e0: b556 a43f 166d 3440 2fb6 a740 2d5e abbf
000001f0: 1d15 3bbf f216 a340 b6e5 9440 1313 1140

bn1.running_var f4 [128]
1.94361 2.05325 1.2150655 1.8082211 1.5679493 1.4304583 1.9671972 1.6318561
1.8191521 1.4382976 2.2680364 1.1839207 1.5475641 2.1704915 2.3170052 1.9142792
2.3541346 1.2190998 1.339243 1.9284188 1.2606672 1.6195533 2.2434509 1.5506696
2.1895802 2.095424 1.87981 1.183113 2.090529 1.6643745 2.7061563 2.2934327
1.4811713 2.1603007 2.0785766 2.9261737 1.5362484 2.6254928 2.3917675 1.6515236
1.2418255 1.6229898 1.7858896 2.221566 1.5874214 1.4516835 1.2994956 1.5431675
1.3104777 1.6780432 2.271065 1.1314493 1.431269 1.0853944 1.0896667 2.070965
1.8479784 1.7556989 2.0076814 1.8272654 1.6063911 1.5005852 1.7995251 1.1343234
2.510376 2.1103516 1.6097381 1.9972295 1.3381188 2.6015067 1.2847426 1.5180014
1.9656298 1.4689764 1.4213636 1.8758882 1.535154 3.9364562 2.0190392 1.1961817
1.5079023 1.9944354 1.1272844 1.2729526 1.817355 1.665586 1.2837361 0.80255365
1.4888468 1.5397564 1.5016476 2.3985662 1.6442386 2.3774126 2.4476535 1.2077633
1.84268 1.5854924 1.98743 1.5318265 1.0803856 1.6113939 0.9898651 3.5280678
1.2022429 1.3368809 1.248775 1.3461825 1.5178634 1.4135743 3.683074 1.7076311
1.9892713 1.4386204 1.4698529 1.8873107 1.8488867 1.1169341 2.2655606 1.8694866
2.3544166 2.133768 2.1903806 1.5328196 1.4367467 1.6097841 1.2071025 2.476402
00000000: 36c8 f83f 7368 0340 4487 9b3f ca73 e73f
00000010: 90b2 c83f 4219 b73f 1ecd fb3f a9e0 d03f
00000020: fad9 e83f 231a b83f 8227 1140 b78a 973f
00000030: 9516 c63f 55e9 0a40 d049 1440 1a07 f53f
00000040: 24aa 1640 760b 9c3f 516c ab3f 6dd6 f63f
00000050: 8b5d a13f 864d cf3f b394 0f40 577c c63f
00000060: 1522 0c40 6d1b 0640 9d9d f03f 3f70 973f
00000070: 3acb 0540 390a d53f aa31 2d40 9ac7 1240
00000080: 0597 bd3f 5e42 0a40 6607 0540 6e46 3b40
00000090: caa3 c43f 1308 2840 b812 1940 2065 d33f
000000a0: 23f4 9e3f 21be cf3f 0898 e43f 232e 0e40
000000b0: a030 cb3f c4d0 b93f df55 a63f 8386 c53f
000000c0: bcbd a73f 1fca d63f 2159 1140 55d3 903f
000000d0: d333 b73f 34ee 8a3f 337a 8b3f b18a 0440
000000e0: 8e8a ec3f beba e03f da7d 0040 d5e3 e93f
000000f0: 399e cd3f 2d13 c03f d756 e63f 8231 913f
00000100: 00aa 2040 0010 0740 e60b ce3f 37a5 ff3f
00000110: 7a47 ab3f 167f 2640 7272 a43f df4d c23f
00000120: c299 fb3f 6b07 bc3f 3eef b53f 1b1d f03f
00000130: ed7f c43f e6ee 7b40 f037 0140 7b1c 993f
00000140: f102 c13f a949 ff3f db4a 903f 1cf0 a23f
00000150: 179f e83f ec31 d53f 7751 a43f 2874 4d3f
00000160: 8892 be3f bd16 c53f fd35 c03f 1c82 1940
00000170: 6976 d23f 8727 1840 5ba6 1c40 fd97 9a3f
00000180: f0dc eb3f 6af1 ca3f 1b64 fe3f e412 c43f
00000190: 134a 8a3f 2842 ce3f cd67 7d3f ddcb 6140
000001a0: 18e3 993f ea1e ab3f dcd7 9f3f b54f ac3f
000001b0: 5949 c23f 01f0 b43f 7cb7 6b40 a893 da3f
000001c0: 71a0 fe3f b724 b83f 2424 bc3f 6693 f13f
000001d0: 52a8 ec3f b2f7 8e3f f2fe 1040 564b ef3f
000001e0: c3ae 1640 a88f 0840 322f 0c40 6f33 c43f
000001f0: 51e7 b73f 680d ce3f 5682 9a3f 5f7d 1e40

fc2.weight f4 [64, 128]
-0.066961035 0.06381621 -0.11439157 -0.008983393 -0.14823923 -0.11845451 -0.0353244 -0.15068907
-0.032270726 -0.05554468 -0.0048910487 -0.06840457 -0.081606485 -0.10061463 -0.15377674 0.0066645658
-0.17137888 -0.03251833 0.062526494 -0.043050516 0.00019889713 0.012417379 -0.0341305 -0.13823056
-0.084335014 -0.11250716 -0.084378235 0.06394315 -0.09398887 0.036956996 -0.063327886 -0.045621853
0.029731296 -0.004874444 -0.06508553 0.063662894 0.0270888 0.092778146 0.007835511 -0.12548757
-0.026616368 0.043360166 -0.12637722 0.005422648 -0.06965056 -0.027979214 0.019826349 0.008360261
-0.0050284127 0.095732115 -0.12640156 -0.025688073 0.037592713 -0.07610138 -0.015017129 -0.029026328
-0.06454937 -0.06270932 0.0138065955 -0.093699634 -0.019217815 -0.0415414 0.03314686 -0.031709403
0.021131251 -0.03658005 0.022784544 -0.080820516 0.003538826 -0.12200978 -0.04058517 -0.045258146
0.004460265 -0.018719051 -0.022020321 0.03936832 0.061252736 -0.025492163 -0.04923853 0.050879102
-0.058046207 -0.0016229197 0.001559456 0.047353886 -0.044507395 0.029534927 -0.025527854 0.0093166325
0.002499565 -0.038269363 0.037380286 -0.05011879 -0.1658178 -0.044211816 0.075106084 0.06029518
-0.13063708 -0.020248141 0.044032685 0.043384276 -0.110965826 -0.19475843 -0.11746765 0.10552458
-0.03444848 -0.08042357 0.027060963 -0.048923153 -0.11316641 -0.042905092 -0.1563123 -0.019539453
0.05932138 0.013030049 -0.1403038 -0.06875535 0.030304754 -0.025008326 0.052711222 -0.08454445
0.07585841 0.07125504 0.012587976 0.055382606 -0.008372434 0.07986271 0.025714494 -0.0133432
-0.03600585 -0.1560231 -0.009318247 -0.021817597 -0.06275879 -0.14657696 0.05116244 -0.1053283
-0.15539171 -0.06868489 0.019288331 -0.012560327 -0.018528624 -0.02517819 -0.055275854 -0.092334785
0.035280325 -0.0564353 -0.043299098 -0.088637196 0.042000964 0.051427346 0.06411035 -0.060307637
-0.18166053 -0.04807386 0.0003454801 0.008269046 -0.018911617 0.019604225 0.1038739 -0.028742723
0.053727925 0.050373178 0.019225363 -0.057648994 0.032683045 -0.034522578 -0.012254201 -0.10431437
0.050903294 0.0835686 0.0013384492 -0.05392667 -0.009140158 0.05576364 0.028488018 -0.124532804
-0.092229344 0.08366008 -0.046385314 -0.09035726 0.020855457 -0.13273086 -0.02651402 -0.00071034743
0.0057667717 0.0016726331 0.029709024 0.04205907 -0.045843747 -0.0033400245 -0.09499033 -0.021430612
0.026572201 -0.025271568 -0.03858597 -0.094107434 -0.051255256 -0.046129607 -0.043921016 0.0024848203
-0.10453637 -0.0541734 0.0074528777 -0.008262503 -0.0632419 0.03473661 -0.0092437435 -0.015901063
-0.08143438 -0.053370267 -0.081762046 -0.1028381 0.039540596 -0.05932055 -0.039777786 -0.044808183
-0.037037894 -0.08137536 0.06638435 -0.087532416 -0.09442179 0.030535422 0.06643099 -0.04404497
-0.024263099 0.027226148 0.0047276905 -0.042946525 -0.1892048 -0.13854326 -0.037760053 0.096012406
0.003932944 -0.042168792 -0.01758293 -0.08788687 -0.012521793 0.016998602 0.03261886 -0.014384752
-0.00937992 -0.028170895 -0.028648542 -0.04654627 0.013361786 -0.086665854 -0.009895489 -0.1333406
-0.06729744 -0.20884976 0.061950304 -0.09106762 -0.08948725 0.0464807 0.084438086 0.06996402
00000000: de22 89bd 13b2 823d 2146 eabd 152f 13bc
00000010: 06cc 17be 4798 f2bd 51b0 10bd 3c4e 1abe
00000020: 4f2e 04bd d282 63bd 1745 a0bb b217 8cbd
00000030: 4d21 a7bd 0b0f cebd a677 1dbe 6e62 da3b
00000040: f27d 2fbe f131 05bd e40d 803d bd55 30bd
00000050: 0b8f 5039 4372 4b3c 6ccc 0bbd 508c 0dbe
00000060: d6b7 acbd 276a e6bd 7fce acbd a0f4 823d
00000070: 3d7d c0bd 3860 173d 0db2 81bd fbdd 3abd
00000080: 0c8f f33c cdb9 9fbb 904b 85bd b161 823d
00000090: 55e9 dd3c 7802 be3d 8460 003c d07f 00be
000000a0: 920a dabc 6e9a 313d 0869 01be 78b0 b13b
000000b0: f4a4 8ebd aa34 e5bc de6a a23c 7af9 083c
000000c0: 62c5 a4bb 330f c43d 696f 01be cb6f d2bc
000000d0: d1fa 193d 0adb 9bbd 670a 76bc 9fc8 edbc
000000e0: 7632 84bd be6d 80bd 0f35 623c 98e5 bfbd
000000f0: ae6e 9dbc 5127 2abd 00c5 073d b8e1 01bd
00000100: 721b ad3c f6d4 15bd a7a6 ba3c 3a85 a5bd
00000110: a6eb 673b 43e0 f9bd a33c 26bd 9b60 39bd
00000120: 6a27 923b b258 99bc f663 b4bc ad40 213d
00000130: 26e4 7a3d f1d4 d0bc 57ae 49bd 9b66 503d
00000140: dcc1 6dbd 26b8 d4ba a966 cc3a 26f6 413d
00000150: 634d 36bd 3bf3 f13c ca1f d1bc caa4 183c
00000160: becf 233b 56c0 1cbd 121c 193d 5c49 4dbd
00000170: 24cc 29be 7317 35bd 38d1 993d 14f8 763d
00000180: bac5 05be 6edf a5bc 9e5b 343d b6b3 313d
00000190: 0d42 e3bd c16e 47be e192 f0bd 451d d83d
000001a0: d919 0dbd 1db5 a4bd f4ae dd3c a563 48bd
000001b0: cac3 e7bd 40bd 2fbd 5510 20be 3411 a0bc
000001c0: fafa 723d fd7b 553c cdab 0fbe 9bcf 8cbd
000001d0: ad41 f83c 43de ccbc b9e7 573d a425 adbd
000001e0: a75b 9b3d 2aee 913d cc3d 4e3c dfd8 623d
000001f0: 892c 09bc 0f8f a33d 34a7 d23c 709d 5abc
00000200: df7a 13bd 85c4 1fbe 90ab 18bc d1ba b2bc
00000210: ae87 80bd 4518 16be b58f 513d 5db6 d7bd
00000220: 011f 1fbe aaaa 8cbd 9002 9e3c d4c9 4dbc
00000230: 57c9 97bc 7e42 cebc ef68 62bd 051a bdbd
00000240: 1a82 103d b328 67bd 655a 31bd 6b87 b5bd
00000250: 3409 2c3d 7ba5 523d 4a4c 833d 2405 77bd
00000260: 3805 3abe 19e9 44bd 8e21 b539 e57a 073c
00000270: 89ec 9abc 0a99 a03c d7bb d43d dc75 ebbc
00000280: d011 5c3d 1b54 4e3d 827e 9d3c 5a21 6cbd
00000290: a8de 053d 8c67 0dbd d8c5 48bc c6a2 d5bd
000002a0: f97f 503d 0426 ab3d e76e af3a 36e2 5cbd
000002b0: 9ac0 15bc 6a68 643d b45f e93c 0e0b ffbd
000002c0: bde2 bcbd fa55 ab3d 87fe 3dbd 3a0d b9bd
000002d0: 10d9 aa3c 99ea 07be ee33 d9bc 9c36 3aba
000002e0: 30f7 bc3b 413c db3a 5760 f33c 2246 2c3d
000002f0: a7c6 3bbd 50e4 5abb 4a8a c2bd 408f afbc
00000300: f2ad d93c 5206 cfbc 520c 1ebd 66bb c0bd
00000310: 08f1 51bd 66f2 3cbd 86e6 33bd 5ed8 223b
00000320: 2a17 d6bd ede4 5dbd 4537 f43b 735f 07bc
00000330: f884 81bd fa47 0e3d 1273 17bc f242 82bc
00000340: 11c7 a6bd c89a 5abd dc72 a7bd c89c d2bd
00000350: 52f5 213d 1bfa 72bd 08ee 22bd c988 37bd
00000360: 0cb5 17bd 20a8 a6bd 85f4 873d 3244 b3bd
00000370: 3660 c1bd 6c25 fa3c f90c 883d 8068 34bd
00000380: 68c3 c6bc 5f09 df3c beea 9a3b b2e8 2fbd
00000390: e7be 41be 49de 0dbe 49aa 1abd 27a2 c43d
000003a0: eddf 803b 2fb9 2cbd 140a 90bc 08fe b3bd
000003b0: 3528 4dbc a740 8b3c 5b9b 053d 06ae 6bbc
000003c0: 3cae 19bc a6c6 e6bc 59b0 eabc 4da7 3ebd
000003d0: 64eb 5a3c de7d b1bd b020 22bc 708a 08be
000003e0: 3dd3 89bd b6dc 55be 9abf 7d3d a981 babd
000003f0: 1745 b7bd 8c62 3e3d e0ed ac3d 4c49 8f3d

fc2.bias f4 [64]
0.06734457 0.031853672 -0.07450047 -0.085385956 0.008841347 0.030078085 0.007873996 -0.005610812
0.02007031 -0.032376055 0.03352397 -0.050940476 0.008826348 0.016531762 -0.051586065 -0.027458312
-0.0870075 0.044424936 0.01221188 -0.07533087 0.076272 0.010342469 -0.052999463 0.07858464
0.03765461 -0.07799872 -0.07423549 -0.0003486168 -0.031220337 0.034062773 0.014763488 -0.03400698
-0.0763179 0.005801141 -0.029614363 0.009460609 0.009323514 0.03775418 0.056163292 0.038814176
-0.007833162 0.04367368 -0.051048953 0.06204531 0.04496585 -0.07268585 -0.058249444 0.008601428
-0.07507792 0.076933764 -0.0120478505 0.012367317 -0.018401524 0.046588164 -0.01669239 -0.087825336
0.014011911 -0.07979255 0.081901796 0.029814396 0.08107386 0.000910404 -0.052151617 -0.0441449
00000000: f3eb 893d ff78 023d b493 98bd d5de aebd
00000010: 4cdb 103c 5166 f63c ef01 013c e7da b7bb
00000020: 7e6a a43c c19c 04bd 6e50 093d f6a6 50bd
00000030: 639c 103c 9e6d 873c e94b 53bd 41f0 e0bc
00000040: fd30 b2bd ecf6 353d 5614 483c 1247 9abd
00000050: 7f34 9c3d 7673 293c f715 59bd fcf0 a03d
00000060: b83b 1a3d cbbd 9fbd c708 98bd 8ec6 b6b9
00000070: cbc1 ffbc 6885 0b3d 8fe2 713c e74a 0bbd
00000080: 8f4c 9cbd 7f17 be3b d299 f2bc ac00 1b3c
00000090: a7c1 183c 21a4 1a3d 7b0b 663d 9dfb 1e3d
000000a0: aa56 00bc 2ce3 323d b518 51bd 3923 7e3d
000000b0: 1c2e 383d 52dc 94bd f896 6ebd 01ed 0c3c
000000c0: 74c2 99bd 738f 9d3d 5964 45bc 4aa0 4a3c
000000d0: cbbe 96bc 3bd3 3e3d 7bbe 88bc c5dd b3bd
000000e0: 3792 653c 476a a3bd 21bc a73d 523d f43c
000000f0: 0d0a a63d 2ea8 6e3a ef9c 55bd 48d1 34bd

bn2.weight f4 [64]
1.3531852 1.3612945 1.3686159 1.511626 1.3197387 1.3727436 1.3639121 1.3926625
1.4243877 1.3375896 1.3357736 1.3571615 1.3984985 1.3488514 1.3892568 1.3981792
1.4197493 1.452943 1.4123595 1.4287475 1.4459687 1.4784237 1.3277951 1.3377707
1.3578163 1.4291581 1.3518419 1.3923959 1.3950198 1.3481731 1.4125828 1.3410574
1.3188261 1.3962828 1.4327121 1.4487903 1.4334263 1.4314448 1.2885723 1.3364136
1.4270216 1.3516569 1.380884 1.415459 1.2960669 1.4038019 1.3130802 1.488391
1.4221452 1.3967407 1.4348658 1.3953718 1.4939632 1.3719428 1.3892273 1.3655751
1.396607 1.3445421 1.3843695 1.334033 1.3163613 1.4122863 1.3470281 1.4313276
00000000: 2c35 ad3f e63e ae3f ce2e af3f f67c c13f
00000010: 33ed a83f 10b6 af3f ac94 ae3f c442 b23f
00000020: 5652 b63f 2336 ab3f a1fa aa3f 78b7 ad3f
00000030: 0002 b33f 2aa7 ac3f 2bd3 b13f 89f7 b23f
00000040: 58ba b53f 09fa b93f 32c8 b43f 33e1 b63f
00000050: 8115 b93f fd3c bd3f 31f5 a93f 123c ab3f
00000060: edcc ad3f a7ee b63f 2809 ad3f 073a b23f
00000070: 0290 b23f f090 ac3f 83cf b43f c5a7 ab3f
00000080: 4bcf a83f 65b9 b23f 1c63 b73f f671 b93f
00000090: 837a b73f 9539 b73f f0ef a43f 9a0f ab3f
000000a0: a5a8 b63f 1803 ad3f cfc0 b03f c32d b53f
000000b0: 85e5 a53f c8af b33f 0313 a83f 9983 be3f
000000c0: db08 b63f 66c8 b23f afa9 b73f 8b9b b23f
000000d0: 303a bf3f d29b af3f 33d2 b13f 2acb ae3f
000000e0: 05c4 b23f f519 ac3f 0533 b13f 98c1 aa3f
000000f0: 877e a83f ccc5 b43f 6b6b ac3f be35 b73f

bn2.bias f4 [64]
0.087526046 0.15868495 0.20911492 0.19802687 0.15683588 0.15089789 0.08981725 0.20409805
0.18978612 0.10594227 0.12353168 0.12607543 0.15826246 0.22873856 0.27598503 0.15452437
0.18572268 0.23609692 0.17897552 0.31379908 0.16273162 0.16396493 0.1267727 0.071470186
0.073932394 0.29136816 0.21201806 0.101216115 0.17771256 0.1754484 0.19107346 0.1737528
0.102417566 0.21292982 0.08454072 0.2856672 0.18195125 0.19034405 0.09992135 0.15826865
0.2651777 0.14368239 0.12298931 0.28483313 0.12179377 0.22519436 0.08539979 0.18491687
0.13859677 0.19674835 0.19740067 0.1525479 0.29820108 0.17592902 0.24684286 0.1589764
0.19134043 0.20692997 0.19173323 0.12528627 0.11516701 0.1596959 0.17284134 0.19524999
00000000: db40 b33d 4f7e 223e 3922 563e 8ec7 4a3e
00000010: 9699 203e fa84 1a3e 1bf2 b73d 14ff 503e
00000020: 4b57 423e 43f8 d83d 2dfe fc3d eb19 013e
00000030: 8e0f 223e 713a 6a3e e94d 8d3e a33b 1e3e
00000040: 162e 3e3e 64c3 713e 5c45 373e 46aa a03e
00000050: 1ea3 263e 6ce6 273e b4d0 013e f65e 923d
00000060: de69 973d 352e 953e 431b 593e 654a cf3d
00000070: 48fa 353e bfa8 333e c3a8 433e 41ec 313e
00000080: 4dc0 d13d 460a 5a3e af23 ad3d f942 923e
00000090: 6e51 3a3e 8de9 423e 91a3 cc3d 2d11 223e
000000a0: 5fc5 873e 7a21 133e d2e1 fb3d a6d5 913e
000000b0: 036f f93d 5a99 663e 16e6 ae3d d95a 3d3e
000000c0: 50ec 0d3e 6678 493e 6723 4a3e 8435 1c3e
000000d0: d0ad 983e bd26 343e 60c4 7c3e b6ca 223e
000000e0: bfee 433e 73e5 533e b755 443e 0b4b 003e
000000f0: aedc eb3d 5287 233e 52fd 303e 9def 473e

bn2.running_mean f4 [64]
-0.5853979 -0.6423259 0.16254833 -0.4167794 0.29692748 -0.00061173015 -0.52146065 0.2823553
-0.2174847 -0.20256457 -0.2582929 -0.6817199 -0.06608076 0.023558082 0.080995895 -0.39833483
-0.19870937 0.44163936 -0.27280125 0.18699104 -0.44942358 -0.0189604 -0.5994989 -0.50972605
0.0108612245 -0.05025485 -0.47290432 -0.08818244 -0.2739106 -0.15526834 -0.3054846 -0.43093598
-0.21733926 0.1620635 -0.5601226 0.3118923 -0.5472776 -0.21827208 -0.25061375 -0.1678273
-0.055055622 -0.023508638 -0.6499985 -0.18652919 0.13522805 -0.10155724 -0.19397622 0.030328806
-0.545248 -0.18595167 0.06896396 -0.054171856 -0.44371843 -0.10071418 -0.16600713 0.20896535
-0.42458802 0.21180943 -0.49856368 -0.1329691 -0.03073362 -0.23624425 -0.35093364 -0.18210763
00000000: a3dc 15bf 786f 24bf 1273 263e 1c64 d5be
00000010: e106 983e 845c 20ba 727e 05bf e090 903e
00000020: 4fb4 5ebe 166d 4fbe f83e 84be 3285 2ebf
00000030: 5955 87bd e1fc c03c 2de1 a53d 8bf2 cbbe
00000040: 787a 4bbe 8e1e e23e 9bac 8bbe 947a 3f3e
00000050: d91a e6be d752 9bbc c378 19bf 687d 02bf
00000060: 47f3 313c 08d8 4dbd 8420 f2be ff98 b4bd
00000070: 033e 8cbe aafe 1ebe 7a68 9cbe a4a3 dcbe
00000080: 2f8e 5ebe f9f3 253e 3264 0fbf 59b0 9f3e
00000090: 631a 0cbf b782 5fbe 7250 80be ebda 2bbe
000000a0: 0182 61bd 3095 c0bc 4d66 26bf 8201 3fbe
000000b0: 3979 0a3e 3efd cfbd b4a1 46be 1e74 f83c
000000c0: 5f95 0bbf 1d6a 3ebe fa3c 8d3d 4fe3 5dbd
000000d0: 102f e3be 3c43 cebd c6fd 29be 03fb 553e
000000e0: 9a63 d9be 92e4 583e bd43 ffbe 0d29 08be
000000f0: 13c5 fbbc 03ea 71be 93ad b3be 6c7a 3abe

bn2.running_var f4 [64]
0.2660109 0.27183512 0.28181064 0.40477273 0.15460432 0.2961272 0.32418743 0.22972156
0.280359 0.25912318 0.3151808 0.31607467 0.30585742 0.2783717 0.26202214 0.24923913
0.36678436 0.2821435 0.3337054 0.2900465 0.30737945 0.33299708 0.25445756 0.27468324
0.28041533 0.37692073 0.24134463 0.256126 0.21710736 0.28261733 0.289203 0.20200375
0.22941451 0.23659591 0.3074597 0.2545301 0.2504584 0.28547353 0.1794705 0.22470085
0.31454405 0.29672956 0.2693236 0.37287048 0.2291552 0.2384489 0.29093105 0.28385252
0.25507304 0.21916524 0.32510146 0.28016114 0.37977087 0.22041534 0.36214262 0.23859686
0.27778175 0.24586245 0.2956577 0.2668241 0.19484964 0.28224993 0.25995445 0.27558547
00000000: 9532 883e f92d 8b3e 7c49 903e 5f3e cf3e
00000010: 9850 1e3e fc9d 973e e5fb a53e 213c 6b3e
00000020: 378b 8f3e cbab 843e 615f a13e 8ad4 a13e
00000030: 5899 9c3e bc86 8e3e c427 863e 8b38 7f3e
00000040: 29cb bb3e 1d75 903e 6fdb aa3e fa80 943e
00000050: d760 9d3e 987e aa3e 4348 823e 48a3 8c3e
00000060: 9992 8f3e c1fb c03e 0c23 773e f222 833e
00000070: 6451 5e3e 38b3 903e 6a12 943e 12da 4e3e
00000080: a3eb 6a3e 3346 723e 5c6b 9d3e c551 823e
00000090: 153c 803e 9629 923e 1dc7 373e fb17 663e
000000a0: eb0b a13e f0ec 973e c8e4 893e e1e8 be3e
000000b0: a9a7 6a3e f32b 743e eaf4 943e 1e55 913e
000000c0: ef98 823e da6c 603e b373 a63e 4871 8f3e
000000d0: 5471 c23e 8fb4 613e c26a b93e bc52 743e
000000e0: 6939 8e3e 5ec3 7b3e 7260 973e 2b9d 883e
000000f0: aa86 473e 1083 903e c018 853e 8a19 8d3e

fc3.weight f4 [10, 64]
0.2801841 0.29964054 -0.18996088 0.33783388 -0.02281596 -0.34614402 -0.15976351 -0.19862658
0.1520282 0.30095264 -0.23632137 0.30075243 -0.18743232 0.27181304 -0.2704275 -0.085473254
0.26549506 -0.17542633 -0.14059012 -0.2834886 0.35716686 0.114443876 -0.29002368 -0.26286593
0.2699272 -0.2662961 -0.31823227 -0.020069754 -0.17605956 -0.15636973 -0.024700295 -0.21171704
-0.17272553 -0.2224412 -0.114421405 -0.030281885 -0.2974354 0.34734726 -0.2462558 -0.086200856
-0.3048172 -0.19961227 0.34126148 0.27575037 -0.24652958 -0.19677906 -0.1999009 0.28591356
0.34281945 -0.23985292 -0.29674414 -0.1829334 -0.3273129 -0.2248293 -0.23707207 -0.26855466
-0.25460666 -0.2153625 -0.15966225 -0.27696294 -0.30173534 -0.09034489 -0.2835268 0.027823487
-0.10106536 -0.22750343 0.3321125 -0.22077397 0.105155215 -0.2066082 -0.24379994 0.3495171
-0.27508438 -0.20242754 -0.17845765 -0.18862951 -0.21965298 0.26139456 0.27187535 -0.31765535
-0.21470645 0.39542434 0.05328964 0.32573003 -0.008424371 -0.16795428 -0.19181705 -0.26000276
-0.1597273 0.2658314 0.11435684 -0.26982138 -0.3429127 0.31622174 -0.33500943 -0.28150085
-0.19936264 -0.2338999 0.17886904 0.070555344 -0.21662842 -0.29836294 -0.24498096 -0.23000212
-0.20102787 -0.2353763 -0.24095792 -0.31060368 -0.24408996 0.31083012 -0.09207742 0.22350353
-0.10587803 -0.31829828 -0.17021729 -0.056750324 -0.06526288 -0.24276517 0.27679643 0.31055897
0.25475493 -0.25808036 0.20510922 0.2709337 -0.27491078 -0.2835098 -0.36904374 -0.1991607
-0.21047874 -0.22886786 -0.27912477 0.2691017 0.31809938 -0.020815788 -0.14363481 0.24864507
-0.13476637 -0.057353895 -0.26756257 -0.11478459 0.13158272 -0.15140569 0.13953826 0.34944978
-0.113286294 -0.35044312 0.29211932 0.25732994 -0.34324792 -0.31681427 0.15901089 -0.1464737
-0.08303685 -0.44236472 -0.29138416 -0.22313677 0.21671818 0.20039114 0.11253381 -0.0986944
-0.2982416 0.24360661 -0.23862247 0.31667966 -0.14121036 0.30029044 0.27980828 0.1829203
-0.23749626 -0.014969652 0.25709546 -0.23688534 0.21148616 -0.24676885 0.22760916 -0.25112998
-0.16495979 0.33911818 -0.10218705 -0.29693803 -0.29947376 -0.14091422 -0.40764955 0.24667172
-0.27482656 -0.23154877 -0.22738451 -0.17658263 -0.3110408 0.28207693 -0.25931075 -0.3607066
0.18765536 -0.1803763 0.29316503 -0.19255586 -0.03549073 0.13931373 -0.20970832 -0.3308277
0.23064542 -0.22570933 -0.1136229 -0.27682868 -0.4076601 0.110946506 -0.33569965 -0.12737261
-0.2528405 -0.2614025 0.36052057 0.3104411 -0.29788586 0.24511907 -0.27925354 -0.19686355
-0.3361059 -0.23924483 -0.21789819 -0.22602904 -0.13874209 -0.3080808 -0.21559985 0.28226933
0.3314198 0.2994247 -0.34303468 0.30652022 0.22172391 -0.20893596 -0.14884037 -0.0664324
-0.29645038 0.10204891 -0.14507143 -0.26213408 0.3027721 -0.3668148 -0.28339282 -0.3364984
0.1528448 0.156326 -0.02661632 -0.22283374 0.26249185 0.120431885 0.32275203 -0.2683576
-0.24007262 0.20340528 0.27845976 -0.33902907 -0.23227213 -0.18503703 0.18612687 -0.2086517
00000000: 4a74 8f3e 7c6a 993e 1b85 42be 90f8 ac3e
00000010: 89e8 babc ca39 b1be 0c99 23be c464 4bbe
00000020: 48ad 1b3e 7716 9a3e 3bfe 71be 39fc 993e
00000030: 42ee 3fbe 142b 8b3e 7975 8abe 9a0c afbd
00000040: f8ee 873e f6a2 33be dbf6 0fbe 6b25 91be
00000050: 93de b63e 8d61 ea3d fc7d 94be 5d96 86be
00000060: e633 8a3e f657 88be 57ef a2be 5369 a4bc
00000070: f548 34be 631f 20be 4658 cabc 5acc 58be
00000080: f6de 30be a0c7 63be c555 eabd b711 f8bc
00000090: 7449 98be 80d7 b13e 7b2a 7cbe 138a b0bd
000000a0: 0011 9cbe 2967 4cbe d3b9 ae3e 272f 8d3e
000000b0: 4072 7cbe 7380 49be d2b2 4cbe 4363 923e
000000c0: 0886 af3e 019c 75be d9ee 97be e552 3bbe
000000d0: 8e95 a7be a739 66be 05c3 72be ff7f 89be
000000e0: ce5b 82be fd87 5cbe 807e 23be 16ce 8dbe
000000f0: 0e7d 9abe be06 b9bd 6d2a 91be 15ee e33c
00000100: 5bfb cebd a9f6 68be a60a aa3e 9212 62be
00000110: 9e5b d73d 1a91 53be b1a6 79be e8f3 b23e
00000120: dcd7 8cbe 2a49 4fbe 9abd 36be 1828 41be
00000130: b6ec 60be 82d5 853e 3f33 8b3e b9a3 a2be
00000140: 02dc 5bbe 0f75 ca3e 3d46 5a3d 16c6 a63e
00000150: 5f06 0abc 35fc 2bbe b06b 44be 151f 85be
00000160: 8e8f 23be 0e1b 883e eb33 ea3d 0726 8abe
00000170: 4192 afbe d1e7 a13e 5b86 abbe e120 90be
00000180: b825 4cbe 7583 6fbe 7229 373e 527f 903d
00000190: d7d3 5dbe 07c3 98be 4adc 7abe ad85 6bbe
000001a0: 40da 4dbe 7c06 71be acbd 76be 7207 9fbe
000001b0: b8f2 79be 2025 9f3e 1693 bcbd 1cde 643e
000001c0: 95d6 d8bd fef7 a2be 714d 2ebe 0773 68bd
000001d0: 8ba8 85bd 6f97 78be 43b8 8d3e 9601 9f3e
000001e0: 3d6f 823e 1c23 84be 2708 523e d2b7 8a3e
000001f0: 1bc1 8cbe 3228 91be 4df3 bcbe c8f0 4bbe
00000200: bd87 57be 565c 6abe 71e9 8ebe b3c7 893e
00000210: ecdd a23e df85 aabc 0115 13be d09c 7e3e
00000220: 3200 0abe ebeb 6abd f6fd 88be 2f14 ebbd
00000230: 9fbd 063e 180a 1bbe 1ee3 0e3e 15eb b23e
00000240: a502 e8bd 486d b3be aa90 953e c0c0 833e
00000250: 31be afbe 7b35 a2be c0d3 223e 34fd 15be
00000260: 390f aabd a17d e2be 4e30 95be f77d 64be
00000270: 5feb 5d3e 5633 4d3e 2078 e63d 4a20 cabd
00000280: 1fb3 98be 0374 793e 7359 74be d623 a23e
00000290: 7399 10be abbf 993e 0843 8f3e 764f 3b3e
000002a0: 3832 73be 4543 75bc 04a2 833e 1292 72be
000002b0: d48f 583e f9b0 7cbe 6012 693e 1c94 80be
000002c0: 38eb 28be e6a0 ad3e 7247 d1bd 4308 98be
000002d0: a054 99be d14b 10be 71b7 d0be 8397 7c3e
000002e0: 11b6 8cbe 1f1b 6dbe 7cd7 68be 14d2 34be
000002f0: bd40 9fbe 636c 903e 61c4 84be 89ae b8be
00000300: ba28 403e 91b4 38be ba19 963e 5d2d 45be
00000310: ba5e 11bd 42a8 0e3e c7bd 56be 4062 a9be
00000320: 502e 6c3e 5920 67be 1fb3 e8bd 7dbc 8dbe
00000330: d3b8 d0be ec37 e33d d3e0 abbe f76d 02be
00000340: 4f74 81be 8cd6 85be 2796 b83e 23f2 9e3e
00000350: 7f84 98be 7e00 7b3e 52fa 8ebe 9996 49be
00000360: 1316 acbe 99fc 74be b420 5fbe 2874 67be
00000370: 6812 0ebe c4bc 9dbe 35c6 5cbe 9b85 903e
00000380: dbaf a93e 324e 993e 3ea2 afbe 38f0 9c3e
00000390: 980b 633e 4ff3 55be 9c69 18be b60d 88bd
000003a0: 58c8 97be 05ff d03d 9b8d 14be 7036 86be
000003b0: f204 9b3e 26cf bbbe dd18 91be 8549 acbe
000003c0: 5983 1c3e ec13 203e 780a dabc 872e 64be
000003d0: 5565 863e fea4 f63d c13f a53e 2b66 89be
000003e0: 99d5 75be 7949 503e 4792 8e3e 3895 adbe
000003f0: bfd8 6dbe 597a 3dbe 0b98 3e3e cba8 55be

fc3.bias f4 [10]
0.03861072 0.14708106 -0.08113362 0.124739714 -0.017094746 -0.018286226 0.0638722 0.052383553
-0.027553016 0.11356891
00000000: 4626 1e3d 6b9c 163e 6229 a6bd 8977 ff3d
00000010: 480a 8cbc ffcc 95bc 6ecf 823d 2390 563d
00000020: ddb6 e1bc d196 e83d
