KI_Shit/mnist_model.pth (torch, 445878 bytes, 14 tensors)

fc1.weight f4 [128, 784]
0.0037430483 -0.028406959 -0.0059631933 -0.03784151 -0.013887654 -0.028275602 0.003331122 0.0019541334
-0.01798037 -0.022392549 0.010706943 -0.023038376 0.057510283 0.040232245 0.029846791 -0.009135681
-0.03184422 0.026451848 -0.043956727 0.0209518 -0.0182103 0.01383536 0.023961551 0.004252171
0.008205197 -0.0291547 0.021678828 0.0013266307 0.021330599 -0.031981897 0.0056162393 -0.039418902
0.037752572 0.020392014 0.07406285 0.08693039 -0.038380373 -0.01027279 0.11335239 0.0032115108
-0.11566486 -0.10026563 -0.15192297 -0.18914917 -0.12523313 -0.090629086 0.028504714 -0.031063031
-0.11920888 -0.09249444 -0.049521692 -0.037479516 -0.01238224 0.014518005 0.02272886 -0.022179764
0.0124018425 -0.0188343 -0.07879301 -0.11674522 -0.1410705 -0.13399692 -0.014111376 0.1037574
-0.00069048704 -0.07921626 -0.022129385 -0.23063295 -0.21493252 -0.037222587 -0.04452775 0.05163926
-0.09284092 -0.08416286 -0.01282699 -0.012584121 0.010318648 0.02115037 0.12946004 0.054542914
0.026864273 -0.010812507 -0.024375368 0.005684732 0.0118541615 0.007188197 0.030353641 -0.10773246
-0.17270751 -0.020446468 0.052366607 0.03385794 -0.16290577 -0.31118432 -0.20086482 -0.2919106
-0.37506402 -0.31811318 -0.16132112 -0.18045671 -0.01028835 -0.0484595 -0.06638871 -0.04778116
0.046482712 0.03336911 0.07378781 -0.07652465 -0.08583655 -0.0929897 0.032615896 -0.032826845
-0.033926688 0.09574165 -0.0012238754 -0.080649264 -0.2291507 0.0030663689 -0.06522524 -0.05638949
-0.1746321 -0.1896189 -0.09025071 0.12969458 0.13991547 0.069953 -0.020247603 0.048855573
0.07919064 0.12594648 0.048325494 -0.0034082124 -0.019222626 0.11693917 0.12474017 0.25125325
0.30153286 0.317643 0.19220746 0.0055317357 0.0039576017 -0.023432426 -0.08869243 -0.13158788
-0.23825483 -0.20427749 -0.077517726 -0.123747654 -0.016609713 -0.011679447 0.13310553 0.014341411
0.021814734 -0.051751036 -0.12523362 -0.11092807 -0.07696086 0.06967168 0.034058362 -0.0419449
-0.104899175 -0.109792724 0.005195942 0.047095772 0.18080759 0.26092365 0.05900565 -0.022693586
0.023883302 -0.04625474 0.026238644 0.004171461 0.001273472 0.15964165 -0.07556981 -0.1479762
-0.06200337 0.016848275 -0.1425203 -0.09819941 -0.10279592 -0.07144304 -0.10441863 -0.28078148
-0.23593885 0.029641116 0.09214109 0.014445819 -0.054967694 -0.052693993 0.04481134 0.18032478
0.03143056 0.0054513384 0.21094103 0.132207 0.095049046 0.11565633 0.029640377 0.124194704
0.010409551 0.045387797 0.00019484757 0.049657643 0.113241486 0.14501351 0.09883873 0.046216037
-0.019698601 -0.19814709 -0.25549766 -0.31145394 -0.20122796 -0.068079606 0.0041319183 -0.12548149
-0.23088239 -0.119637094 0.027890125 0.04078088 0.09717046 0.04800964 0.13930492 0.23912182
0.022664063 0.21366425 0.17383929 0.050700355 0.017057046 0.03146415 -0.04058611 0.07214127
0.035288684 0.083533265 0.14621107 0.04617773 -0.008045356 -0.17668507 -0.2170397 -0.18041727
-0.18496972 -0.07737032 -0.005675766 -0.1142242 0.09663915 0.066976614 0.07525815 0.08857311
0.14109674 0.1027283 0.020455102 0.05299215 0.19010472 0.2068453 -0.05439289 -0.021029372
00000000: ee4d 753b b6b5 e8bc e466 c3bb b3ff 1abd
00000010: 0b89 63bc 3ca2 e7bc f44e 5a3b eb10 003b
00000020: 924b 93bc 9470 b7bc 2d6c 2f3c faba bcbc
00000030: e78f 6b3d 91ca 243d 4281 f43c d3ad 15bc
00000040: 166f 02bd 8cb1 d83c f80b 34bd 1ca3 ab3c
00000050: c42d 95bc b5ad 623c 044b c43c cc55 8b3b
00000060: 176f 063c d6d5 eebc cc97 b13c 57e2 ad3a
00000070: 82bd ae3c 73ff 02bd 6e08 b83b b775 21bd
00000080: 71a2 1a3d 270d a73c 43ae 973d 8f08 b23d
00000090: bd34 1dbd 344f 28bc 4c25 e83d 3678 523b
000000a0: b3e1 ecbd 1158 cdbd b291 1bbe 52b0 41be
000000b0: 1d3d 00be be9b b9bd b882 e93c e677 febc
000000c0: c923 f4bd ba6d bdbd 42d7 4abd 1f84 19bd
000000d0: e1de 4abc eddc 6d3c e031 ba3c 56b2 b5bc
000000e0: 1931 4b3c 644a 9abc 3b5e a1bd 1e18 efbd
000000f0: c974 10be 7d36 09be 6733 67bc c27e d43d
00000100: cd01 35ba 223c a2bd af48 b5bc 0b2b 6cbe
00000110: 4517 5cbe b676 18bd bb62 36bd b083 533d
00000120: 6123 bebd 945d acbd 4c28 52bc a12d 4ebc
00000130: 8c0f 293c 8a43 ad3c 2c91 043e 6468 5f3d
00000140: 7712 dc3c f126 31bc daae c7bc fd46 ba3b
00000150: f537 423c f88a eb3b 33a8 f83c d6a2 dcbd
00000160: 3dda 30be 5a7f a7bc 5e7e 563d a0ae 0a3d
00000170: c5d0 26be 8d53 9fbe 82af 4dbe 4e75 95be
00000180: 6408 c0be bbdf a2be 5d31 25be a5c9 38be
00000190: 7890 28bc 787d 46bd cef6 87bd 2db6 43bd
000001a0: a864 3e3d 0cae 083d 101e 973d f5b8 9cbd
000001b0: 13cb afbd 6271 bebd 3f98 053d 7175 06bd
000001c0: b6f6 0abd 3314 c43d 726a a0ba 712b a5bd
000001d0: 7ba6 6abe 22f5 483b d094 85bd aaf8 66bd
000001e0: c2d2 32be 752b 42be 5dd5 b8bd a8ce 043e
000001f0: 0046 0f3e 8543 8f3d 4dde a5bc c81c 483d
00000200: b42e a23d 1df8 003e f4f0 453d 515c 5fbb
00000210: c578 9dbc ce7d ef3d c677 ff3d 44a4 803e
00000220: 8462 9a3e 1aa2 a23e 08d2 443e 9043 b53b
00000230: c5ae 813b 5cf5 bfbc 60a4 b5bd f9be 06be
00000240: 13f9 73be 1e2e 51be 9dc1 9ebd 696f fdbd
00000250: 1811 88bc 275b 3fbc d14c 083e 3df8 6a3c
00000260: d0b4 b23c e5f8 53bd 3e3d 00be 422e e3bd
00000270: a89d 9dbd 07b0 8e3d c880 0b3d 6ace 2bbd
00000280: 61d5 d6bd 02db e0bd b842 aa3b 7fe7 403d
00000290: a025 393e c997 853e e9af 713d e6e7 b9bc
000002a0: eaa6 c33c 9c75 3dbd 6df2 d63c c0b0 883b
000002b0: a1ea a63a 1a79 233e 58c4 9abd 1387 17be
000002c0: 3ff7 7dbd 6505 8a3c d7f0 11be c61c c9bd
000002d0: ab86 d2bd bb50 92bd 6fd9 d5bd 97c2 8fbe
000002e0: f499 71be edd1 f23c 78b4 bc3d 28ae 6c3c
000002f0: ce25 61bd a8d5 57bd 188c 373d 0fa7 383e
00000300: 55bd 003d 24a1 b23b ed00 583e 4661 073e
00000310: 13a9 c23d 3add ec3d 60d0 f23c cb59 fe3d
00000320: d28c 2a3c 8ee8 393d ff4f 4c39 d065 4b3d
00000330: 27eb e73d 6c7e 143e f66b ca3d 074d 3d3d
00000340: f65e a1bc 12e7 4abe 97d0 82be e476 9fbe
00000350: b40e 4ebe 526d 8bbd 0b65 873b 387e 00be
00000360: 6f6c 6cbe 4b04 f5bd d579 e43c da09 273d
00000370: 4e01 c73d c2a5 443d f3a5 0e3e 5adc 743e
00000380: fca9 b93c cdca 5a3e ed02 323e 2dab 4f3d
00000390: 38bb 8b3c 8de0 003d 9f3d 26bd cdbe 933d
000003a0: de8a 103d 7d13 ab3d 5bb8 153e dc24 3d3d
000003b0: abd0 03bc eeec 34be a83f 5ebe 4ebf 38be
000003c0: b468 3dbe 5574 9ebd c7fb b9bb 61ee e9bd
000003d0: bfea c53d 092b 893d f220 9a3d d265 b53d
000003e0: aa7b 103e 3763 d23d 7591 a73c 4c0e 593d
000003f0: d0aa 423e 41cf 533e 14cb 5ebd ca45 acbc

fc1.bias f4 [128]
-0.01757282 0.012431657 0.022929464 0.015442494 -0.02362065 -0.013049401 0.013752056 0.04391176
0.014948621 0.042869855 0.027725905 0.00858362 -0.029342175 0.03221233 -0.028460229 0.0008414762
0.011924453 -0.032707453 0.0016782024 -0.030801557 0.02865137 0.01654088 -0.034491953 0.019174485
0.028837487 -0.020136863 0.012529205 -0.027151642 0.014996229 0.023634901 -0.021266902 -0.029745346
0.008280012 -0.002787712 0.011156406 0.028851563 0.0069812424 0.038299102 0.027997937 0.024053829
0.020867797 -0.037967924 -0.023007262 -0.030077357 0.03401655 -0.031858828 -0.030270867 -0.03049531
0.021365346 0.027859127 0.006091216 0.000997158 -0.027966963 -0.02141995 0.032668818 -0.0147071015
-0.028202843 0.005778667 -0.014539012 0.01960054 0.0068477793 -0.044687588 0.013439602 0.02969416
-0.014990379 -0.03171401 0.018712457 -0.036447514 -0.022206182 0.02676977 -0.03300496 -0.009874879
0.034545276 0.026571466 0.0213223 0.010553233 0.0112063745 0.045854244 -0.01453534 -0.0068106926
-0.019195624 0.0138556985 0.0054315105 -0.018723039 0.009445409 -0.014181077 0.023596467 0.019198352
-0.03330398 -0.014158098 0.035296552 0.016325392 0.0332903 0.020475078 0.04131381 -0.021143392
-0.002905909 -0.02835659 0.0013593407 -0.036615554 -0.0074473773 0.010860588 0.020637812 -0.013807542
-0.0030179245 0.035801012 0.021152461 0.01224324 -0.014668863 0.030939562 -0.024906352 0.008863841
-0.019234542 0.0093995575 -0.005012283 0.015277464 -0.03267074 -0.027125394 0.026669383 0.04261106
0.008171787 0.0364694 0.025822798 0.017418107 0.030632788 -0.028981427 0.033001725 0.029690353
00000000: e0f4 8fbc 26ae 4b3c 92d6 bb3c 8402 7d3c
00000010: 1880 c1bc 28cd 55bc 4e50 613c d1dc 333d
00000020: 10eb 743c 4d98 2f3d 7021 e33c 50a2 0c3c
00000030: 005f f0bc 13f1 033d 6d25 e9bc 8396 5c3a
00000040: c85e 433c 40f8 05bd 21f7 db3a 8c53 fcbc
00000050: 47b6 ea3c bd80 873c 6f47 0dbd cf13 9d3c
00000060: 983c ec3c 10f6 a4bc 4b47 4d3c 1f6d debc
00000070: beb2 753c fb9d c13c ed37 aebc 83ac f3bc
00000080: e3a8 073c 0cb2 36bb 5cc9 363c 1d5a ec3c
00000090: e8c2 e43b 85df 1c3d ee5b e53c 890c c53c
000000a0: f1f2 aa3c 4184 1bbd ba79 bcbc ca64 f6bc
000000b0: f054 0b3d 677e 02bd 9cfa f7bc 4dd1 f9bc
000000c0: 6106 af3c d338 e43c d398 c73b 12b3 823a
000000d0: f91a e5bc e478 afbc bdcf 053d 0ef6 70bc
000000e0: a609 e7bc f95a bd3b 0935 6ebc 5091 a03c
000000f0: 5663 e03b 550a 37bd c731 5c3c 2b41 f33c
00000100: 359a 75bc 8de6 01bd de4a 993c fd49 15bd
00000110: bde9 b5bc 474c db3c 3530 07bd 3fca 21bc
00000120: 597f 0d3d 67ac d93c 1bac ae3c 78e7 2c3c
00000130: f19a 373c a9d1 3b3d a225 6ebc 3b2c dfbb
00000140: 2440 9dbc 0303 633c d0fa b13b 0f61 99bc
00000150: ebc0 1a3c bf57 68bc 614d c13c dd45 9d3c
00000160: c169 08bd 5ef7 67bc 1e93 103d d4bc 853c
00000170: 695b 083d 5abb a73c ab38 293d e834 adbc
00000180: 1071 3ebb 144c e8bc e82b b23a 31fa 15bd
00000190: 2109 f4bb 9cf0 313c a110 a93c 0739 62bc
000001a0: 5fc8 45bb 15a4 123d ed47 ad3c df97 483c
000001b0: ac55 70bc f774 fd3c 6808 ccbc a539 113c
000001c0: c291 9dbc 9a00 1a3c 143e a4bb 544e 7a3c
000001d0: c1d1 05bd 1336 debc c079 da3c ef88 2e3d
000001e0: f5e2 053c f060 153d 558a d33c 6bb0 8e3c
000001f0: 9df1 fa3c 756a edbc d12c 073d 2f39 f33c

bn1.weight f4 [128]
0.8637582 0.84393805 0.9567388 0.9196961 0.89960307 0.8464886 0.95980877 0.9459859
0.9476568 0.943106 0.8337064 0.9165352 0.9268589 0.8530902 0.857602 0.9569088
0.86703837 0.9275318 0.830158 0.8481685 0.9431856 0.9116182 0.84836245 0.8247801
0.9035705 0.99224824 0.8959352 0.9914499 0.89500874 0.82316774 0.864764 1.0893196
0.8258732 0.87947625 0.9113244 0.8832656 0.8956081 0.95473623 0.8841441 1.0735685
0.87251496 0.8185277 0.9945812 0.77161705 0.943941 0.83523893 0.8144068 0.8723919
0.82400066 0.84578073 0.8697782 0.94862425 0.92128843 0.8848536 0.9955408 0.8659926
0.8395975 0.90472037 0.95020324 0.8648664 0.87341 0.78940856 1.0160964 0.82683724
0.8589012 0.9040723 0.9168826 0.89336693 0.9809554 0.9140017 0.9483235 0.8851838
0.9075783 0.9454189 0.8787865 0.7831991 1.0443233 0.930738 0.8459635 0.96692187
0.9729836 0.88166344 0.8444501 0.90956783 0.82028383 1.0051086 0.86167634 0.96597695
0.9557846 0.8571659 0.8869236 0.89268005 0.882552 0.8892691 0.79629135 0.84801334
0.896563 0.83994776 0.8635409 0.8819694 0.82584053 0.9785526 0.91134584 0.9680448
0.8617825 0.8575917 0.9026913 0.8288061 0.8397472 0.87529993 0.81924284 0.926078
0.9297049 0.9409116 0.8830039 0.7951785 1.0291718 0.9157276 0.84913576 0.94355893
0.9145338 0.85300636 0.84747076 0.9141825 0.86307704 0.910327 0.79603815 0.89751965
00000000: 421f 5d3f 530c 583f d6ec 743f 3471 6b3f
00000010: 634c 663f 7ab3 583f 07b6 753f 222c 723f
00000020: a399 723f 656f 713f c86d 553f 0da2 6a3f
00000030: a046 6d3f 1f64 5a3f ce8b 5b3f faf7 743f
00000040: 3af6 5d3f b972 6d3f 3c85 543f 9221 593f
00000050: 9d74 713f cf5f 693f 482e 593f ca24 533f
00000060: 6550 673f fb03 7e3f 025c 653f a9cf 7d3f
00000070: 4b1f 653f 1fbb 523f 2c61 5d3f d36e 8b3f
00000080: 6d6c 533f 5b25 613f 8e4c 693f b21d 623f
00000090: 9346 653f 9869 743f 4557 623f b16a 893f
000000a0: 245d 5f3f 088b 513f e09c 7e3f b288 453f
000000b0: 1ea6 713f 38d2 553f f77c 503f 1355 5f3f
000000c0: b5f1 523f 1685 583f c9a9 5e3f 0ad9 723f
000000d0: 8fd9 6b3f c485 623f c3db 7e3f b1b1 5d3f
000000e0: ddef 563f c19b 673f 8540 733f e267 5d3f
000000f0: cc97 5f3f ae16 4a3f 720f 823f 9bab 533f
00000100: f3e0 5b3f 4871 673f d1b8 6a3f b2b3 643f
00000110: e51f 7b3f 04fc 693f 54c5 723f 689b 623f
00000120: 0d57 683f f906 723f 27f8 603f bc7f 483f
00000130: 63ac 853f d844 6e3f 1091 583f 3188 773f
00000140: 7415 793f b2b4 613f e22d 583f 70d9 683f
00000150: 1ffe 513f 66a7 803f d296 5c3f 444a 773f
00000160: 4dae 743f 396f 5b3f 6d0d 633f ae86 643f
00000170: eeee 613f 24a7 633f c0d9 4b3f 6717 593f
00000180: 2785 653f d106 573f 0411 5d3f bfc8 613f
00000190: 496a 533f 6c82 7a3f f64d 693f c9d1 773f
000001a0: c79d 5c3f 218b 5b3f c716 673f a32c 543f
000001b0: acf9 563f a813 603f e6b9 513f 7313 6d3f
000001c0: 2401 6e3f 95df 703f 8b0c 623f d190 4b3f
000001d0: e7bb 833f 206d 6a3f f660 593f 148d 713f
000001e0: e31e 6a3f a05e 5a3f d8f3 583f dd07 6a3f
000001f0: 9ef2 5c3f 310b 693f 28c9 4b3f d9c3 653f

bn1.bias f4 [128]
-0.6213419 -0.38586986 -0.6478313 -0.415784 -0.4964167 -0.4649575 -0.54302615 -0.5405353
-0.46705997 -0.4070341 -0.5915749 -0.5878822 -0.64787626 -0.63385576 -0.4023715 -0.51453733
-0.29198328 -0.33354297 -0.52176106 -0.23576257 -0.46925256 -0.45428234 -0.3774359 -0.39782995
-0.49225467 -0.5586035 -0.3779203 -0.51137006 -0.34559527 -0.42920652 -0.4392543 -0.6027282
-0.39447215 -0.4857806 -0.45376852 -0.2123933 -0.52550274 -0.44684196 -0.47966415 -0.5125068
-0.43338045 -0.33063233 -0.6083598 -0.5641606 -0.4790557 -0.33588606 -0.38604262 -0.45070666
-0.54399127 -0.45821163 -0.54288375 -0.33680582 -0.44478753 -0.46492705 -0.51780045 -0.44567385
-0.4025066 -0.58490384 -0.46751255 -0.4974422 -0.21802989 -0.25872162 -0.42544365 -0.35177797
-0.5070164 -0.3435231 -0.5366574 -0.43204764 -0.5114722 -0.33127183 -0.51124203 -0.66477007
-0.4350296 -0.515932 -0.3937714 -0.3937718 -0.5034183 -0.419248 -0.38514885 -0.36617234
-0.3017315 -0.64530265 -0.331003 -0.40091634 -0.35429904 -0.6129657 -0.39526105 -0.5371533
-0.40583456 -0.52171594 -0.31651628 -0.4749841 -0.29106727 -0.4606078 -0.35949832 -0.35583904
-0.41094002 -0.31476855 -0.70572776 -0.49309194 -0.6008478 -0.41426393 -0.46054158 -0.5129791
-0.49543643 -0.44272634 -0.33453354 -0.5247356 -0.40456462 -0.60363394 -0.49018693 -0.5303128
-0.583548 -0.42082593 -0.5723136 -0.10387803 -0.5767348 -0.4202914 -0.30607164 -0.45231217
-0.28977087 -0.49610776 -0.46877435 -0.5160686 -0.45261902 -0.41740838 -0.3479386 -0.3469837
00000000: 4310 1fbf bc90 c5be 46d8 25bf a4e1 d4be
00000010: 542a febe e90e eebe c303 0bbf 8560 0abf
00000020: 7c22 efbe c666 d0be 7471 17bf 737f 16bf
00000030: 38db 25bf 5f44 22bf a303 cebe b8b8 03bf
00000040: d57e 95be 25c6 aabe 2292 05bf be6b 71be
00000050: df41 f0be b297 e8be 473f c1be 5eb0 cbbe
00000060: ce08 fcbe a400 0fbf c57e c1be 26e9 02bf
00000070: ddf1 b0be f5c0 dbbe f1e5 e0be 654c 1abf
00000080: 41f8 c9be 3cb8 f8be 5954 e8be a17d 59be
00000090: 5987 06bf 78c8 e4be 8a96 f5be a533 03bf
000000a0: 0be4 ddbe a448 a9be 78bd 1bbf d46c 10bf
000000b0: ca46 f5be 42f9 abbe 61a7 c5be 06c3 e6be
000000c0: 0343 0bbf b79a eabe 6efa 0abf d071 acbe
000000d0: 31bb e3be eb0a eebe 928e 04bf 5d2f e4be
000000e0: 5815 cebe 42bc 15bf ce5d efbe beb0 febe
000000f0: 3a43 5fbe 2977 84be c0d3 d9be 3e1c b4be
00000100: d4cb 01bf 42e2 afbe 6162 09bf 5935 ddbe
00000110: d8ef 02bf 769c a9be c2e0 02bf 5f2e 2abf
00000120: 33bc debe 1f14 04bf 689c c9be 759c c9be
00000130: 06e0 00bf ada7 d6be 3b32 c5be f17a bbbe
00000140: 8d7c 9abe 8e32 25bf 3a79 a9be e844 cdbe
00000150: af66 b5be 52eb 1cbf a85f cabe e182 09bf
00000160: 8cc9 cfbe 2d8f 05bf 6c0e a2be 1e31 f3be
00000170: c506 95be c9d4 ebbe 2a10 b8be 8930 b6be
00000180: bb66 d2be 5829 a1be 93aa 34bf 8c76 fcbe
00000190: 29d1 19bf 671a d4be 1bcc ebbe 9952 03bf
000001a0: d8a9 fdbe 07ad e2be fb47 abbe 1355 06bf
000001b0: 1823 cfbe c187 1abf c8f9 fabe 94c2 07bf
000001c0: 6763 15bf 7f76 d7be 2583 12bf 01be d4bd
000001d0: e4a4 13bf 6f30 d7be 6cb5 9cbe 7695 e7be
000001e0: d95c 94be d601 febe 3103 f0be 121d 04bf
000001f0: aebd e7be 8db6 d5be 0225 b2be d9a7 b1be

bn1.running_mean f4 [128]
3.966135 -12.444784 -0.7848676 -2.8968425 -3.5203662 16.515388 9.211523 0.9739602
5.035448 7.011057 4.160806 -2.802672 -7.4144526 -1.7587986 -0.08069887 2.7961574
-5.2152486 1.0701898 6.187672 2.8521097 9.725259 2.7720017 -3.8368225 6.6094265
2.7812684 -8.463011 -4.1666317 7.796783 18.139864 -6.59797 4.4679723 -10.500858
10.454769 -1.510541 10.51797 4.5814734 -6.138515 16.845728 1.8700806 -0.9098106
-5.839997 -6.9450774 -1.0742096 -7.761893 -1.0278698 1.7609411 10.0105505 1.0458434
-1.2471725 -1.0631305 4.9868183 9.581622 1.0352656 3.48813 -1.0141126 2.6038308
8.385389 -6.466722 -19.282743 -5.7339654 -6.130209 22.490738 5.03546 10.558551
6.9035616 1.989504 8.542829 15.247327 -5.4716125 -5.2112074 4.5461493 3.8551824
2.0729287 3.3865285 18.725428 4.4900713 4.5253673 8.422489 4.09473 -1.9924197
-7.234384 -13.412504 -4.4720426 16.339 10.247882 1.8330034 -2.6038036 7.1533203
-10.834821 -16.693613 9.831295 2.1661522 -0.9106884 5.716575 4.9732075 6.240116
10.245095 3.2295666 8.897419 -2.2949781 2.4023943 -1.1141161 1.8413693 -6.805807
-1.7680936 4.987845 -1.6738644 -2.1927555 -8.409249 -4.30647 9.915899 1.3286911
9.049992 11.793197 2.55004 -8.725077 -2.1159666 7.1962724 -3.4563053 -4.020941
-1.0321854 21.915318 16.736174 -13.98199 -5.6857147 -3.2886684 15.35463 1.4815465
00000000: 28d5 7d40 d61d 47c1 15ed 48bf de65 39c0
00000010: ae4d 61c0 841f 8441 6662 1341 7555 793f
00000020: 6422 a140 945a e040 5325 8540 fa5e 33c0
00000030: 3243 edc0 5020 e1bf 7345 a5bd 3ef4 3240
00000040: 51e3 a6c0 fbfb 883f 6901 c640 f788 3640
00000050: a99a 1b41 7a68 3140 808e 75c0 6c80 d340
00000060: 4d00 3240 7e68 07c1 0c55 85c0 3f7f f940
00000070: 711e 9141 9222 d3c0 a1f9 8e40 8403 28c1
00000080: bc46 2741 6859 c1bf 9b49 2841 6e9b 9240
00000090: b76e c4c0 0dc4 8641 cd5e ef3f 59e9 68bf
000000a0: 41e1 bac0 133e dec0 b37f 89bf 6d61 f8c0
000000b0: 3d91 83bf 8566 e13f 372b 2041 32de 853f
000000c0: 59a3 9fbf a914 88bf 0494 9f40 534e 1941
000000d0: 9583 843f 863d 5f40 71ce 81bf 2aa5 2640
000000e0: 8e2a 0641 63ef cec0 0f43 9ac1 a57c b7c0
000000f0: ac2a c4c0 08ed b341 7d22 a140 d3ef 2841
00000100: fae9 dc40 11a8 fe3f 6daf 0841 0df5 7341
00000110: 7317 afc0 36c2 a6c0 0e7a 9140 4fbb 7640
00000120: ddaa 0440 e2bc 5840 adcd 9541 aaae 8f40
00000130: cfcf 9040 84c2 0641 0708 8340 9c07 ffbf
00000140: 1380 e7c0 9e99 56c1 f91a 8fc0 46b6 8241
00000150: 53f7 2341 db9f ea3f b8a4 26c0 00e8 e440
00000160: 6d5b 2dc1 858c 85c1 fc4c 1d41 3da2 0a40
00000170: e022 69bf 2fee b640 8424 9f40 08af c740
00000180: e9eb 2341 38b1 4e40 d45b 0e41 ece0 12c0
00000190: d4c0 1940 5b9b 8ebf fdb1 eb3f 2cc9 d9c0
000001a0: e450 e2bf 6d9c 9f40 3041 d6bf 1b56 0cc0
000001b0: 498c 06c1 9ace 89c0 86a7 1e41 8d12 aa3f
000001c0: c4cc 1041 efb0 3c41 db33 2340 ea99 0bc1
000001d0: ff6b 07c0 dd47 e640 1b34 5dc0 8cab 80c0
000001e0: a71e 84bf 9252 af41 afe3 8541 3bb6 5fc1
000001f0: 60f1 b5c0 8b79 52c0 91ac 7541 51a3 bd3f

bn1.running_var f4 [128]
13.582736 16.902605 7.9335465 17.16893 11.070476 17.051374 9.54068 19.084507
8.140102 17.580648 12.664665 13.245507 13.486607 11.859797 8.661896 9.354346
14.4359045 20.858004 11.538489 9.079393 13.644525 8.189435 9.378471 9.619023
11.494562 11.621936 13.853258 8.9518585 11.651342 15.775395 10.675845 16.946411
8.307818 15.279008 7.956641 12.856056 15.317323 21.49709 17.851463 11.3103695
13.340015 8.907116 16.303785 8.670333 20.462929 14.608427 9.843694 16.04698
13.181788 10.10564 11.858842 27.18361 16.323334 14.973921 11.869112 14.811705
11.227594 17.68608 13.815076 9.377187 12.828929 11.513999 13.666699 9.987506
14.111954 14.468158 12.350364 16.213236 18.053858 16.296774 11.969027 12.835909
14.193104 18.151094 17.77855 11.965917 17.662199 17.395943 8.520447 10.442179
13.5478945 9.159117 11.927045 16.227957 12.863053 14.077738 12.6150055 19.377901
11.279617 11.738273 20.605598 13.3270645 13.965816 16.244364 6.5111117 12.29441
16.208794 8.146948 13.563904 15.131477 9.726539 12.145222 21.184484 10.99991
13.534216 7.49933 21.790329 13.502832 15.425976 20.12879 10.976458 13.127542
8.971967 17.837833 10.556849 11.607095 11.548898 17.905146 12.659996 10.21737
8.991499 9.039807 12.386189 15.922517 9.6600685 20.433681 9.803253 8.87317
00000000: e352 5941 8938 8741 9ddf fd40 f859 8941
00000010: ab20 3141 3769 8841 a0a6 1841 12ad 9841
00000020: dc3d 0241 2ba5 8c41 78a2 4a41 99ed 5341
00000030: 24c9 5741 bac1 3d41 2097 0a41 67ab 1541
00000040: 77f9 6641 31dd a641 a79d 3841 3245 1141
00000050: f94f 5a41 ed07 0341 380e 1641 85e7 1941
00000060: bae9 3741 73f3 3941 f2a6 5d41 d03a 0f41
00000070: e66b 3a41 0568 7c41 43d0 2a41 4092 8741
00000080: d3ec 0441 d176 7441 ce9c fe40 68b2 4d41
00000090: c113 7541 0afa ab41 cccf 8e41 46f7 3441
000000a0: b470 5541 8c83 0e41 276e 8241 afb9 0a41
000000b0: 14b4 a341 1ebc 6941 c57f 1d41 3760 8041
000000c0: 9be8 5241 b4b0 2141 d1bd 3d41 0978 d941
000000d0: 3096 8241 2e95 6f41 e2e7 3d41 befc 6c41
000000e0: 3aa4 3341 187d 8d41 8d0a 5d41 f508 1641
000000f0: 4b43 4d41 5739 3841 cdaa 5a41 d3cc 1f41
00000100: 90ca 6141 937d 6741 179b 4541 b5b4 8141
00000110: 4d6e 9041 cb5f 8241 2281 3f41 e25f 4d41
00000120: f416 6341 7135 9141 783a 8e41 6574 3f41
00000130: 2f4c 8d41 e42a 8b41 c053 0841 2a13 2741
00000140: 2dc4 5841 be8b 1241 2dd5 3e41 dbd2 8141
00000150: 11cf 4d41 6a3e 6141 10d7 4941 f105 9b41
00000160: 5079 3441 f7cf 3b41 44d8 a441 a83b 5541
00000170: fb73 5f41 75f4 8141 075b d040 e7b5 4441
00000180: 9cab 8141 e659 0241 c005 5941 881a 7241
00000190: e79f 1b41 d452 4241 d379 a941 a2ff 2f41
000001a0: 268c 5841 83fa ef40 9852 ae41 9a0b 5841
000001b0: ccd0 7641 c307 a141 929f 2f41 690a 5241
000001c0: 2d8d 0f41 e2b3 8e41 dae8 2841 a9b6 3941
000001d0: 49c8 3841 bd3d 8f41 588f 4a41 597a 2341
000001e0: 2edd 0f41 0da3 1041 d52d 4641 a1c2 7e41
000001f0: a48f 1a41 2e78 a341 20da 1c41 81f8 0d41

fc2.weight f4 [64, 128]
-0.05402747 0.05019875 0.20679745 -0.093193986 -0.28118053 0.12907185 -0.12332765 0.17818642
-0.12761147 -0.033715658 0.17962703 -0.055504084 -0.354212 -0.06041383 -0.020017387 -0.24726315
0.22433445 -0.09696723 0.28109136 -0.058573388 -0.013005466 0.095551334 -0.092295155 0.14406261
0.0024564816 0.14135295 -0.11725384 0.062411036 0.0118425 0.14423144 -0.20534657 0.11392053
0.003961529 0.07538647 -0.1328188 0.17774667 -0.09733756 0.23928005 0.077747405 -0.28224522
0.047942437 -0.024934527 0.19176134 -0.10551039 0.05878054 -0.09840593 0.11521888 0.09825189
0.021142842 -0.23712732 0.13208236 0.04078258 0.032549888 0.027079586 -0.23558901 -0.053063393
-0.118896894 0.044461947 0.10224312 0.086674824 0.2178139 -0.026478112 0.120947815 0.13582288
0.09157151 -0.08008272 -0.26214036 -0.03835007 0.2172392 0.04823691 0.16293399 0.038971495
-0.12660971 -0.08465783 0.055539586 0.11056889 0.01476448 -0.10089652 -0.011588077 -0.14705236
-0.0070337765 -0.11710192 0.0019654143 0.069957905 0.01640512 0.10907951 -0.020004937 -0.15090953
0.008587965 0.09208332 0.04714617 0.05489522 0.0057667787 0.011291579 0.12434736 -0.25365
0.19465382 -0.03767022 -0.20234782 -0.18971995 0.16110769 -0.09357382 0.21310325 -0.113918625
-0.071798936 -0.037056576 0.101787046 0.012120461 -0.049031936 -0.22823188 -0.10482928 0.02910249
-0.054185983 0.021127028 -0.09516195 0.0969086 0.15782666 0.2837574 -0.15138105 -0.2354745
0.09634205 0.15269767 0.02741861 0.13651519 0.10751973 -0.043339152 0.003493888 -0.15643997
0.15120481 0.074252136 -0.09716684 -0.11787513 -0.023763208 -0.23820227 -0.07698494 -0.16425021
0.077857144 0.10980026 0.08402945 0.17433555 -0.22414376 0.119552866 0.111389734 -0.1316227
-0.09580692 -0.118349716 -0.08261781 0.11050623 0.06503169 -0.058541566 -0.0072276457 0.0080507295
-0.023158908 0.08546138 0.19207458 0.14654365 -0.04389095 0.018551804 -0.19673257 0.2773687
0.050925102 0.105083466 -0.10551113 0.024199152 -0.04576743 -0.099252485 -0.09496764 -0.043227267
-0.008508664 -0.13439016 0.34642318 -0.028611038 -0.0030394131 -0.1265964 0.09732599 0.12868148
-0.31288174 -0.23591793 0.026484227 0.17112264 0.08564401 0.082948335 -0.01753148 0.106693335
-0.07751238 0.11780309 0.06806382 0.08937075 -0.03183665 -0.01715977 0.17779665 -0.14213638
0.056517333 -0.075389735 -0.13984628 -0.16628689 0.34661007 0.03428603 -0.1048216 -0.060177878
-0.17571494 -0.094005674 -0.07494372 0.10676363 0.28070116 -0.22034362 -0.19284947 -0.06893973
0.08820641 0.058837682 0.10211876 0.16243836 0.16332527 -0.52146006 0.11218299 0.14540951
0.057826076 -0.06373731 -0.07714195 -0.035845723 0.03277626 0.071281254 -0.0013887994 -0.15563363
0.0549077 -0.039967977 -0.14976059 0.02365169 -0.11225766 -0.0807906 0.03853017 0.104943424
0.027883979 -0.021700798 0.21697758 0.22524874 0.06196055 0.04324327 0.08439066 -0.10278378
0.026704766 0.090805106 -0.020271188 -0.080129966 0.24784753 -0.03809879 -0.12728596 0.10856828
0.015374979 -0.052078832 -0.13319658 0.15451974 -0.0108104795 0.03901925 0.08740615 -0.12137803
00000000: e94b 5dbd 349d 4d3d b6c2 533e 7ddc bebd
00000010: e5f6 8fbe 692b 043e 3593 fcbd 8076 363e
00000020: 95ac 02be 6e19 0abd 26f0 373e 4058 63bd
00000030: 465b b5be 7e74 77bd 81fb a3bc 8d32 7dbe
00000040: eeb7 653e c196 c6bd 35eb 8f3e a6ea 6fbd
00000050: e114 55bc 6bb0 c33d 3e05 bdbd 2685 133e
00000060: ecfc 203b d4be 103e c822 f0bd b7a2 7f3d
00000070: 0c07 423c 68b1 133e 5f46 52be 2b4f e93d
00000080: b7cf 813b 3964 9a3d a701 08be 3903 363e
00000090: ea58 c7bd d405 753e 083a 9f3d 7282 90be
000000a0: 4a5f 443d 7e43 ccbc 165d 443e d515 d8bd
000000b0: ddc3 703d 0c89 c9bd e0f7 eb3d 4938 c93d
000000c0: c133 ad3c 81d1 72be 9940 073e a20b 273d
000000d0: 0853 053d 02d6 dd3c 3f3e 71be 0059 59bd
000000e0: 3780 f3bd bb1d 363d d764 d13d 9282 b13d
000000f0: 9b0a 5f3e a0e8 d8bc 7db3 f73d 2715 0b3e
00000100: d889 bb3d 6902 a4bd 4337 86be f714 1dbd
00000110: f473 5e3e 1194 453d 2bd8 263e 93a0 1f3d
00000120: faa5 01be 1661 adbd 7a7d 633d f171 e23d
00000130: b8e6 713c d6a2 cebd ebdb 3dbc e594 16be
00000140: 987b e6bb 22d3 efbd 2ece 003b 1746 8f3d
00000150: 0864 863c 1465 df3d 65e1 a3bc 0788 1abe
00000160: 89b4 0c3c 2e96 bc3d 581c 413d cfd9 603d
00000170: 3ff7 bc3b 5100 393c d4a9 fe3d 6ade 81be
00000180: 5553 473e 174c 1abd 4434 4fbe f245 42be
00000190: 6af9 243e a2a3 bfbd bd37 5a3e 2b4e e9bd
000001a0: 520b 93bd a3c8 17bd ba75 d03d e694 463c
000001b0: b6d5 48bd 9eb5 69be bcb0 d6bd 5868 ee3c
000001c0: 1ff2 5dbd 9712 ad3c 45e4 c2bd 0478 c63d
000001d0: 509d 213e a648 913e a203 1bbe 3a20 71be
000001e0: fb4e c53d c75c 1c3e fe9c e03c a3ca 0b3e
000001f0: 4e33 dc3d 6584 31bd b7f9 643b cd31 20be
00000200: 6fd5 1a3e 8111 983d 69ff c6bd 8468 f1bd
00000210: 0fab c2bc 4ceb 73be 48aa 9dbd 3531 28be
00000220: 9173 9f3d f5de e03d a217 ac3d 0585 323e
00000230: f185 65be 22d8 f43d 4d20 e43d 1ac8 06be
00000240: 6b36 c4bd 5661 f2bd 8733 a9bd 1751 e23d
00000250: 562f 853d 48c9 6fbd e3d5 ecbb 35e7 033c
00000260: c0b7 bdbc 6006 af3d 33af 443e 8a0f 163e
00000270: ffc6 33bd f4f9 973c 4374 49be 4503 8e3e
00000280: d796 503d 0036 d73d 3816 d8bd 4d3d c63c
00000290: a176 3bbd e344 cbbd 657e c2bd 130f 31bd
000002a0: ec67 0bbc 939d 09be 615e b13e b261 eabc
000002b0: e430 47bb 7da2 01be d952 c73d 14c5 033e
000002c0: 0932 a0be 7894 71be 73f5 d83c c63a 2f3e
000002d0: 2066 af3d d1e0 a93d 2e9e 8fbc 0982 da3d
000002e0: d0be 9ebd bf42 f13d 0b65 8b3d 0308 b73d
000002f0: 2667 02bd a592 8cbc 5310 363e 338c 11be
00000300: b87e 673d ef65 9abd dd33 0fbe 1c47 2abe
00000310: e076 b13e 826f 0c3d b5ac d6bd 147d 76bd
00000320: 9eee 33be 0c86 c0bd 187c 99bd e4a6 da3d
00000330: 10b8 8f3e c2a1 61be 557a 45be 4630 8dbd
00000340: 90a5 b43d c8ff 703d a423 d13d 3e56 263e
00000350: bd3e 273e 687e 05bf 32c0 e53d 3be6 143e
00000360: 09db 6c3d b588 82bd 99fc 9dbd f7d2 12bd
00000370: 6640 063d e8fb 913d 6008 b6ba 6c5e 1fbe
00000380: e5e6 603d 76b5 23bd d75a 19be 30c1 c13c
00000390: 58e7 e5bd 8b75 a5bd d0d1 1d3d 94ec d63d
000003a0: f16c e43c dfc5 b1bc 5f2f 5e3e 9ba7 663e
000003b0: 58ca 7d3d db1f 313d 03d5 ac3d 4d80 d2bd
000003c0: f4c3 da3c 07f8 b93d c30f a6bc 2e1b a4bd
000003d0: becb 7d3e 7a0d 1cbd 4057 02be 0c59 de3d
000003e0: 56e7 7b3c 9d50 55bd af64 08be 6c3a 1e3e
000003f0: 701e 31bc a6d2 1f3d ff01 b33d 0b95 f8bd

fc2.bias f4 [64]
-0.04318917 -0.08128042 -0.022757124 0.04369449 -0.025323747 -0.011758667 -0.039593827 0.072081484
-0.019564435 -0.069710106 -0.051893383 -0.042495996 -0.010400842 0.013341881 0.06350642 0.0167037
0.063207924 0.0044195554 0.037423328 0.043517176 0.029433385 0.02897862 -0.026869556 -0.07371172
0.04332066 0.053977255 -0.080819406 -0.096804656 0.04387107 0.020016044 0.027872277 0.04387767
-0.045566082 0.06419374 -0.07448973 -0.0060049617 -0.072207175 0.070729345 -0.061193723 -0.012052774
-0.094762444 -0.03918409 -0.06241059 -0.037954345 -0.058114957 0.00054711424 0.069205076 0.035301562
-0.07802543 0.05461637 0.071564235 0.046368416 -0.01166024 -0.06635657 -0.042745907 -0.008076159
0.062562555 0.03699997 -0.07245012 -0.014712403 0.022459907 0.023219375 0.05212974 -0.039298233
00000000: 21e7 30bd 5976 a6bd 266d babc fef8 323d
00000010: bf73 cfbc 6da7 40bc 232d 22bd 759f 933d
00000020: 9845 a0bc 2cc4 8ebd 288e 54bd 4810 2ebd
00000030: 4b68 2abc e897 5a3c a70f 823d 33d6 883c
00000040: 2873 813d ebd1 903b 3449 193d 113f 323d
00000050: 481e f13c 9264 ed3c 8b1d dcbc 2cf6 96bd
00000060: 0171 313d 4117 5d3d a584 a5bd 8541 c6bd
00000070: 27b2 333d b0f8 a33c 6754 e43c 12b9 333d
00000080: 80a3 3abd 0278 833d 128e 98bd 45c5 c4bb
00000090: 5be1 93bd 8cda 903d 45a6 7abd 0079 45bc
000000a0: d012 c2bd 7f7f 20bd 3fa2 7fbd 0476 1bbd
000000b0: f309 6ebd 376c 0f3a 64bb 8d3d 5f98 103d
000000c0: cccb 9fbd 6ab5 5f3d 4590 923d cfec 3d3d
000000d0: 970a 3fbc f4e5 87bd 5516 2fbd de51 04bc
000000e0: cc20 803d 488d 173d ba60 94bd 4a0c 71bc
000000f0: d7fd b73c 8f36 be3c ff85 553d 2ff7 20bd

bn2.weight f4 [64]
1.6608224 1.6436889 1.4866784 1.5973955 1.6465031 1.457928 1.7698338 1.7248975
1.537281 1.6326392 1.6491764 1.6858704 1.6107013 1.5735472 1.7097038 1.4285132
1.6860572 1.8372699 1.518638 1.6843456 1.622051 1.7548342 1.7033525 1.5878838
1.6561071 1.7189924 1.6510283 1.5713881 1.5680805 1.5044596 1.6357718 1.5697072
1.6536014 1.7581781 1.4155719 1.7084318 1.3822284 1.677506 1.7779016 1.4893236
1.614415 1.5522053 1.559727 1.7941935 1.6412706 1.5378519 1.5887554 1.4530042
1.719701 1.6147819 1.5902019 1.6166121 1.6186117 1.5051378 1.6244497 1.6661744
1.9260044 1.6301981 1.5272818 1.6007408 1.6728638 1.6497405 1.6846646 1.665997
00000000: d495 d43f 6664 d23f 7a4b be3f 7577 cc3f
00000010: 9dc0 d23f 629d ba3f ea89 e23f 71c9 dc3f
00000020: a0c5 c43f 52fa d03f 3618 d33f 9aca d73f
00000030: 762b ce3f ff69 c93f 93d7 da3f 85d9 b63f
00000040: b9d0 d73f a92b eb3f bb62 c23f a398 d73f
00000050: 5e9f cf3f 689e e03f 7407 da3f c73f cb3f
00000060: 51fb d33f f107 dc3f e554 d33f 3f23 c93f
00000070: ddb6 c83f 2292 c03f f860 d13f 2aec c83f
00000080: 36a9 d33f fb0b e13f 7631 b53f e5ad da3f
00000090: dcec b03f 84b8 d63f 4892 e33f 28a2 be3f
000000a0: 27a5 ce3f aaae c63f 22a5 c73f 22a8 e53f
000000b0: 2815 d23f 55d8 c43f 565c cb3f 0bfc b93f
000000c0: 2a1f dc3f 2cb1 ce3f bc8b cb3f 25ed ce3f
000000d0: ab2e cf3f 5ba8 c03f f8ed cf3f 3445 d53f
000000e0: 5087 f63f 55aa d03f f87d c33f 13e5 cc3f
000000f0: 6720 d63f b22a d33f 17a3 d73f 643f d53f

bn2.bias f4 [64]
0.0091766985 0.11725674 0.12493999 0.15857106 0.064441055 0.06556703 0.123646334 0.04081876
0.047848053 0.05480159 0.029222036 0.19425175 0.020481544 0.1407133 0.16449292 0.11952054
0.044400845 0.23941734 0.03282247 0.0004387496 0.05852696 0.11206867 0.06469401 -0.028581746
0.10972118 0.044516884 0.2686251 0.30288568 -0.034009445 -0.043213714 0.22416408 0.13914551
-0.12528312 0.11641008 0.054861404 0.24342814 0.014765493 0.17898385 0.26318285 0.025359698
0.18033236 0.082298465 -0.053226512 0.16281877 0.16616938 0.16471304 0.011291033 0.03317109
0.15479416 0.10512672 0.07685631 0.230734 0.16351365 -0.10230489 0.084096536 0.09788925
0.23205541 0.0705863 0.17195301 0.14082627 0.05706282 0.2583647 0.03885484 0.17094396
00000000: dd59 163c 4d24 f03d 8ae0 ff3d 7460 223e
00000010: acf9 833d 0248 863d 4a3a fd3d 9231 273d
00000020: 52fc 433d a277 603d 0d63 ef3c eee9 463e
00000030: e9c8 a73c 2617 103e d570 283e 2fc7 f43d
00000040: a9dd 353d d229 753e db70 063d f907 e639
00000050: f7b9 6f3d 4284 e53d 4b7e 843d 4424 eabc
00000060: 7fb5 e03d 5657 363d 3b89 893e d513 9b3e
00000070: 7d4d 0bbd dd00 31bd 458b 653e 297c 0e3e
00000080: 384a 00be 6868 ee3d 5ab6 603d 3a45 793e
00000090: f7ea 713c 8b47 373e e7bf 863e 24bf cf3c
000000a0: 0ca9 383e 198c a83d 0b04 5abd f7b9 263e
000000b0: 4e28 2a3e 89aa 283e 06fe 383c 69de 073d
000000c0: 5c82 1e3e ae4c d73d d766 9d3d 8945 6c3e
000000d0: 1f70 273e 3a85 d1bd ce3a ac3d 297a c83d
000000e0: ef9f 6d3e 8d8f 903d 7314 303e c334 103e
000000f0: b4ba 693d 6148 843e 4126 1f3d ef0b 2f3e

bn2.running_mean f4 [64]
0.08122386 -0.011686573 -0.35093215 -0.3885801 -0.72879916 0.22019954 -0.41453412 -0.23299897
-0.2647279 -0.42641214 0.14849348 -0.2703404 0.36272463 0.18242812 -0.2532569 0.053371698
0.057481516 -0.3638737 0.04978928 -0.3171104 0.11675449 0.18211967 -0.20035975 0.019734161
-0.40576327 0.4659697 -0.188067 0.45167872 -0.5374769 -0.43339482 -0.13204709 0.13566503
-0.61889136 -0.15149893 -0.2416503 0.53353477 0.109879136 -0.093694605 0.5176372 0.054085568
-0.4629955 0.15451975 0.13951136 0.21200362 0.35706392 0.37677476 0.6259302 0.38724807
-0.49184638 0.2939269 -0.06872954 0.48467204 0.06749218 -0.6824312 0.15028958 -0.48326862
-0.3137022 -0.4662562 -0.25972113 -0.4054572 -0.59357285 0.5204415 -0.32168108 0.33026773
00000000: b258 a63d 0a79 3fbc 61ad b3be f9f3 c6be
00000010: 9592 3abf fd7b 613e d13d d4be 4897 6ebe
00000020: 6a8a 87be b152 dabe ad0e 183e 0f6a 8abe
00000030: 0bb7 b93e 70ce 3a3e e3aa 81be 489c 5a3d
00000040: bd71 6b3d a74d babe d8ef 4b3d 4b5c a2be
00000050: fa1c ef3d 947d 3a3e 1b2b 4dbe 89a9 a13c
00000060: 34c0 cfbe 9593 ee3e a394 40be 6f42 e73e
00000070: 1698 09bf ede5 ddbe 5a37 07be c6eb 0a3e
00000080: aa6f 1ebf 8922 1bbe 2d73 77be bc95 083f
00000090: 5008 e13d f5e2 bfbd df83 043f d488 5d3d
000000a0: bf0d edbe 6d3a 1e3e 11dc 0e3e 7a17 593e
000000b0: 15d1 b63e 9fe8 c03e f63c 203f 6145 c63e
000000c0: 4ad3 fbbe 967d 963e 13c2 8cbd ef26 f83e
000000d0: 5739 8a3d d0b3 2ebf 83e5 193e fc6e f7be
000000e0: 939d a0be 22b9 eebe 2bfa 84be 1698 cfbe
000000f0: 64f4 17bf a73b 053f 62b3 a4be da18 a93e

bn2.running_var f4 [64]
0.6699103 0.9794578 0.8822703 0.7041779 0.76134866 0.8331158 0.7427266 0.91715896
0.6991919 0.70179623 0.7139892 0.9306595 0.8568811 0.93664217 1.016661 0.50299805
0.66804844 0.85957986 0.63787735 0.83446366 1.0450723 0.7307168 1.0735844 0.7222259
0.98722756 0.6011988 0.8630912 0.6440024 0.8451526 0.51774436 0.9055567 0.5373598
0.719314 0.822546 0.7231913 0.7919437 0.5230841 0.6278586 0.84919935 0.7643976
1.100392 0.905456 0.7629732 0.82795304 0.6998448 0.79889494 0.6314825 0.5625247
1.1817268 0.7463088 0.67101383 0.69964254 0.71818197 0.7448336 0.7583545 0.74288774
1.1024843 0.93197465 0.832225 0.62314636 0.79943377 0.7444584 0.9383162 0.736864
00000000: 3e7f 2b3f bfbd 7a3f 77dc 613f 0145 343f
00000010: bfe7 423f 1447 553f 5523 3e3f eeca 6a3f
00000020: 3efe 323f eba8 333f ffc7 363f b33f 6e3f
00000030: 8f5c 5b3f c8c7 6f3f f321 823f 7bc4 003f
00000040: 3905 2b3f 6d0d 5c3f ee4b 233f 699f 553f
00000050: eec4 853f 4210 3b3f 376b 893f cce3 383f
00000060: f2ba 7c3f 2ae8 193f 8bf3 5c3f 57dd 243f
00000070: ec5b 583f e58a 043f 90d2 673f 6990 093f
00000080: f624 383f 6092 523f 1123 393f d3bc 4a3f
00000090: d7e8 053f 57bb 203f 2165 593f 90af 433f
000000a0: a5d9 8c3f f7cb 673f 3652 433f bbf4 533f
000000b0: 0729 333f 6184 4c3f d6a8 213f 9e01 103f
000000c0: d342 973f 180e 3f3f 90c7 2b3f c61b 333f
000000d0: c6da 373f 6aad 3e3f 8523 423f e42d 3e3f
000000e0: 351e 8d3f e495 6e3f b30c 553f 8586 1f3f
000000f0: b1a7 4c3f d394 3e3f 7e35 703f 1ea3 3c3f

fc3.weight f4 [10, 64]
-0.12909141 0.2946595 0.3455379 0.2626371 0.07089197 -0.57815415 -0.11791789 -0.06510581
0.0756283 -0.013553561 -0.3244156 -0.2653291 -0.42702308 -0.38919017 -0.6740685 -0.5036397
-0.47336963 0.12430851 -0.2723003 -0.07406367 0.33076772 -0.5095069 0.21680215 0.35637513
0.27594644 0.29409033 -0.046283178 -0.63044524 -0.29821593 -0.32711017 0.27310947 -0.29638028
0.35987103 -0.41554117 0.29258344 -0.5267379 -0.29375955 -0.70115966 -0.6445847 -0.11284473
-0.580549 -0.5009942 0.2834611 -0.4995876 -0.41443783 -0.29732335 -0.5211483 -0.44771892
-0.48349965 -0.42625108 -0.6269463 0.21990556 -0.35894626 -0.49726805 0.28282028 0.10962884
-0.6222548 0.29562825 -0.111720726 0.20688052 0.23378539 -0.50799143 0.23561698 0.29382613
-0.61942416 -0.36647153 -0.39519486 -0.644558 0.2882276 -0.25862712 -0.12663758 0.31170452
-0.23812896 0.29119694 -0.21684958 -0.5392676 0.3053132 -0.24571554 0.31992513 -0.3885882
-0.30261886 -0.5487208 0.36930954 -0.40500996 -0.5012741 0.2866597 -0.53174233 -0.2676644
-0.3261264 0.365867 0.21094534 0.0073282197 0.2998934 0.07410595 -0.32608566 0.21062928
0.29561627 -0.22258867 -0.3198184 0.30715692 -0.3717075 -0.34955916 0.3210118 -0.31004438
-0.086095475 -0.25793174 -0.11138221 -0.20776844 0.3060929 0.33532393 0.33855465 0.4033175
-0.5309957 0.043735776 -0.14370205 0.16823062 -0.27940896 -0.26565632 -0.7212411 -0.5099335
-0.47289637 -0.41516548 0.30761465 -0.5722672 -0.63138205 2.8170762e-05 0.31321454 0.207563
-0.008080928 -0.0524824 0.050801814 -0.30871138 -0.4059941 -0.041655973 0.19822913 -0.4812802
-0.059087373 -0.4548961 -0.27589625 0.1395893 0.31008646 -0.20896602 0.25369132 0.05911814
-0.36980137 0.20227495 0.20604433 -0.47275856 -0.65761024 -0.34205565 0.2752131 0.31641874
0.299744 -0.38804564 -0.0537848 0.21811755 -0.42378905 0.3231383 -0.24859037 0.30262688
-0.20655556 0.26851246 0.23189768 0.19164836 0.06241998 0.18766823 -0.42279443 0.2915754
-0.8690488 -0.3866303 -0.37832585 -0.050088137 -0.27569297 0.27854663 -0.34613705 -0.076400794
-0.58351403 -0.41221341 0.2563969 0.20423341 -0.28114438 -0.5154157 -0.48048073 0.30291066
-0.4195304 -0.20250317 -0.3083273 -0.37327737 0.21390307 0.20893802 -0.52420694 0.18364163
-0.3898571 0.2801764 0.22038592 0.24162291 -0.54962677 0.30817088 0.25870708 -0.40464485
0.055178363 -0.2569608 0.0156042995 -0.28832513 -0.35758486 -0.49797913 0.017064502 -0.21564917
-0.24591833 0.20046143 -0.2899803 -0.638219 -0.45600626 0.26881662 -0.5283416 -0.3333895
0.038346656 -0.26297584 0.03822262 0.1442301 -0.63425577 -0.19680905 -0.4394222 -0.1787604
-0.32888004 0.2603011 0.25113288 0.31778237 -0.20362805 0.25706127 0.29223153 -0.2660675
0.2288588 0.22008342 -0.15451455 -0.11369594 -0.13356517 -0.11644303 -0.13388081 0.27042076
0.22398041 0.29237044 0.23962511 -0.17263272 -0.5473837 0.057630308 -0.26926157 -0.09699678
0.20927264 -0.5048095 0.05445218 0.07089806 -0.30552882 0.19502668 -0.1136038 0.13788016
00000000: 8a30 04be 9cdd 963e 58ea b03e 5f78 863e
00000010: cf2f 913d e901 14bf ef7e f1bd 3256 85bd
00000020: 03e3 9a3d c10f 5ebc cd19 a6be 37d9 87be
00000030: c5a2 dabe ef43 c7be c18f 2cbf 88ee 00bf
00000040: 815d f2be 7695 fe3d f26a 8bbe b2ae 97bd
00000050: 635a a93e 0b6f 02bf 6201 5e3e cd76 b63e
00000060: da48 8d3e 0293 963e 6e93 3dbd dc64 21bf
00000070: c2af 98be fc7a a7be 01d5 8b3e 28bf 97be
00000080: 0441 b83e d0c1 d4be 7fcd 953e 4cd8 06bf
00000090: a767 96be 337f 33bf 8103 25bf 231b e7bd
000000a0: dc9e 14bf 2841 00bf d021 913e f2c9 ffbe
000000b0: 3231 d4be c43a 98be fa69 05bf 6a3b e5be
000000c0: 448d f7be 953d dabe 8d7f 20bf ec2e 613e
000000d0: cec7 b7be eb99 febe d2cd 903e 1685 e03d
000000e0: 174c 1fbf 965c 973e d6cd e4bd 7dd8 533e
000000f0: 7065 6f3e ba0b 02bf 9445 713e 6170 963e
00000100: 9592 1ebf 28a2 bbbe fb56 cabe c101 25bf
00000110: 9192 933e c66a 84be 48ad 01be bc97 9f3e
00000120: 14d8 73be c417 953e d10d 5ebe 710d 0abf
00000130: 0352 9c3e db9c 7bbe 3acd a33e 08f5 c6be
00000140: dcf0 9abe f778 0cbf 2416 bd3e 775d cfbe
00000150: 8053 00bf 0fc5 923e 4420 08bf 4f0b 89be
00000160: 0afa a6be eb52 bb3e 0e02 583e 9021 f03b
00000170: a18b 993e dcc4 973d b3f4 a6be 34af 573e
00000180: 045b 973e 49ee 63be 3dbf a3be ac43 9d3e
00000190: 7250 bebe 6bf9 b2be a95b a43e 23be 9ebe
000001a0: d352 b0bd a10f 84be 5b1c e4bd 40c1 54be
000001b0: 35b8 9c3e 94af ab3e 0957 ad3e a27f ce3e
000001c0: 56ef 07bf 4924 333d a126 13be a644 2c3e
000001d0: b10e 8fbe 1b04 88be 42a3 38bf 008b 02bf
000001e0: 791f f2be 9290 d4be ab7f 9d3e 1a80 12bf
000001f0: 41a2 21bf 4050 ec37 a85d a03e 658b 543e
00000200: de65 04bc c9f7 56bd 9015 503d 6b0f 9ebe
00000210: 75de cfbe 749f 2abd 94fc 4a3e 5c6a f6be
00000220: 9a05 72bd 24e8 e8be 4642 8dbe 7ff0 0e3e
00000230: a7c3 9e3e 30fb 55be d4e3 813e dd25 723d
00000240: 9b56 bdbe 2a21 4f3e 49fd 523e 690d f2be
00000250: 2559 28bf eb21 afbe bbe8 8c3e a301 a23e
00000260: 0c78 993e ebad c6be 734d 5cbd 355a 5f3e
00000270: e1fa d8be 6272 a53e 798e 7ebe e9f1 9a3e
00000280: 4d83 53be 777a 893e 9676 6d3e 783f 443e
00000290: 18ac 7f3d 1a2c 403e 8378 d8be 5f49 953e
000002a0: fb79 5ebf 68f4 c5be edb3 c1be 3829 4dbd
000002b0: a127 8dbe aa9d 8e3e e038 b1be 0578 9cbd
000002c0: 2d61 15bf a30d d3be 7446 833e 9022 513e
000002d0: 28f2 8fbe 49f2 03bf 9201 f6be 1b17 9b3e
000002e0: b0cc d6be fe5c 4fbe 13dd 9dbe 361e bfbe
000002f0: 6809 5b3e d9f3 553e 6d32 06bf 8d0c 3c3e
00000300: 5a9b c7be 4873 8f3e d9ac 613e ff6b 773e
00000310: 57b4 0cbf 93c8 9d3e 4175 843e 9c2d cfbe
00000320: b502 623d 5e90 83be 2da9 7f3c 5a9f 93be
00000330: 5d15 b7be 1ff7 febe dbca 8b3c 23d3 5cbe
00000340: 04d2 7bbe c345 4d3e 4c78 94be 5262 23bf
00000350: a779 e9be 55a2 893e 6541 07bf 07b2 aabe
00000360: 6211 1d3d c5a4 86be 528f 1c3d 0eb1 133e
00000370: 965e 22bf 5088 49be f2fb e0be f70c 37be
00000380: f762 a8be 3046 853e 7d94 803e 5fb4 a23e
00000390: df83 50be 899d 833e 5f9f 953e 003a 88be
000003a0: f659 6a3e 8c5d 613e 1039 1ebe 6bd9 e8bd
000003b0: 4fc5 08be af79 eebd 0d18 09be 9774 8a3e
000003c0: 1f5b 653e 94b1 953e 4960 753e a2c6 30be
000003d0: 5721 0cbf c20d 6c3d a7dc 89be 3fa6 c6bd
000003e0: 914b 563e 323b 01bf 4009 5f3d 0133 913d
000003f0: 466e 9cbe 13b5 473e 1ca9 e8bd 7530 0d3e

fc3.bias f4 [10]
-0.016119478 -0.039051455 -0.031763352 -0.025098836 -0.098592274 -0.08481579 -0.25482562 0.0061280886
0.14056972 -0.023780242
00000000: ff0c 84bc 6bf4 1fbd 4a1a 02bd 139c cdbc
00000010: bfea c9bd e7b3 adbd 8178 82be 22ce c83b
00000020: 82f1 0f3e c8ce c2bc
